model.pth (torch, 33683 bytes, 4 tensors)

fc1.weight f4 [64, 121]
000000 2a 27 76 3c 5c 92 50 3d cf 5c 99 bd 5f bc 85 3e
       0.015023986 0.05092083 -0.07488405 0.26120278
000010 3e 4a b9 3c 5b d5 42 3e 89 07 0e 3f 4b c0 13 3e
       0.02261841 0.19026701 0.5548025 0.14428823
000020 96 b6 e2 3d c5 db a0 bd 58 88 c1 3d b0 52 ce 3e
       0.11069982 -0.07854418 0.09449834 0.4029746
000030 c7 d8 53 3e 84 31 c7 bd df 53 ba 3e 30 b2 ee bd
       0.20688163 -0.09726241 0.36392114 -0.1165508
000040 cc 7b 56 3e 13 df 1a 3e e9 4b f2 3d 86 fc 82 3e
       0.20945662 0.15124159 0.11830885 0.25583285
000050 01 79 5b 3e 88 f3 bc 3d 90 4c f9 3e c1 e0 b4 bd
       0.21432878 0.092261374 0.48691225 -0.08831931
000060 0d 77 7b be e0 3b a1 3e f6 1f 09 3e f9 06 aa be
       -0.24557133 0.31490993 0.13391098 -0.33208445
000070 d9 67 20 be a1 88 a1 3d 1d fd 3a 3e ae a3 a3 bd
       -0.15664615 0.07887388 0.18260618 -0.07990204
000080 9d 3a d2 3e 0a ad 8f 3e 54 c7 07 3c d3 77 96 3d
       0.41060343 0.28061706 0.00828727 0.073470734
000090 b1 88 73 3e d0 63 51 3e 72 12 1e 3d 25 09 31 be
       0.23782612 0.20448232 0.03859181 -0.17288645
0000a0 88 71 01 3f 02 3b 98 3e 3a 00 9d be ed 08 41 be
       0.5056386 0.2973252 -0.30664235 -0.18851061
0000b0 82 14 8d 3e 78 fa f5 be 6a 29 9c bd 7e ff 00 be
       0.2755471 -0.48042655 -0.076250866 -0.12597463
0000c0 cb e4 01 bc ee c6 2c 3e ba 77 85 3e 36 57 65 3e
       -0.007928084 0.1687276 0.26067907 0.2239655
0000d0 33 1f b3 bd 7d 50 02 3e 8e 3a 6e bc 35 4f 80 3e
       -0.08746185 0.12726016 -0.014540328 0.2506043
0000e0 52 73 ad be ed e9 ac be 25 68 85 bc 9e b4 d6 3e
       -0.33877045 -0.3377222 -0.016285012 0.41934675
0000f0 f8 99 6c 3d ca b9 5e 3d ff 4e 4f 3e a7 c3 dd bc
       0.057764024 0.0543764 0.20244978 -0.027070833
000100 fc f7 3a be d3 17 8a be eb 98 a6 be 9d 31 e5 3d
       -0.18258661 -0.269713 -0.32538542 0.111911036
000110 f2 9a dc 3c ab e8 1e 3d 0d 66 0a 3e 1f 64 6f bd
       0.026929352 0.03879611 0.13515492 -0.058445092
000120 81 a8 1e bd 83 b8 1a bc dc 06 04 be 9e 22 ed be
       -0.038734917 -0.009443405 -0.12893242 -0.46315473
000130 aa 29 4b be 05 93 e6 be 37 b7 9b be cd f0 1c bd
       -0.19840112 -0.45034042 -0.3041322 -0.038315583
000140 92 95 14 be dc 19 fb bc 91 64 8f bc 2a 30 9f 3e
       -0.14510182 -0.03065198 -0.017504008 0.31091434
000150 7e 1b 8b be cb ed 45 3d 7f 79 51 be 37 04 88 bd
       -0.27169412 0.04832248 -0.20456503 -0.06641429
000160 6b 6c 2f bf b2 e3 34 be 8f 85 88 3e 81 54 61 be
       -0.6852481 -0.17664984 0.26664397 -0.22004892
000170 1c 8c c1 bc af 0d 2c be ba 62 c6 3e 6c 0c 98 bd
       -0.02362638 -0.16802095 0.38747197 -0.07424244
000180 8c 5a bb be 83 56 d0 be 59 07 54 bd a9 27 a8 3e
       -0.3659252 -0.40691003 -0.05176482 0.32842758
000190 25 a1 a1 be 45 01 43 3d e2 f8 10 bd 44 0f 1f 3f
       -0.31568256 0.047608633 -0.035393603 0.6213267
0001a0 de ec 94 be d7 18 db 3d 04 81 9e be 1a 3d d4 be
       -0.29086965 0.10698097 -0.30957806 -0.41452867
0001b0 4f b7 cc bd ad cf 4f 3e 5c 63 a8 be 60 66 a2 be
       -0.09995901 0.20294066 -0.32888305 -0.3171873
0001c0 6b ce 9f be 8f 0b 73 be 92 e6 38 bd 79 b4 7f 3e
       -0.31212172 -0.23734878 -0.045141764 0.24971189
0001d0 27 04 93 be 81 c2 16 be af ef e8 bb 50 63 3c be
       -0.28714105 -0.14722635 -0.0071086506 -0.1839726
0001e0 72 a2 89 be 7e 81 93 be d8 b9 b7 be ac f2 3f 3f
       -0.26881748 -0.28809732 -0.35883975 0.7497966
0001f0 a2 47 72 3d c5 e1 1f 3e 0f 1a cf 3e 80 45 cc 3e
       0.059150346 0.15613468 0.4044957 0.39896774
000200 6e 55 63 3e 1f ff 02 be f0 9a 29 bd 84 9b df 3c
       0.22200558 -0.12792633 -0.041407526 0.027295835
000210 27 84 dc bd 08 79 75 bd 1e 37 ed 3e 39 63 05 bd
       -0.107673936 -0.059929878 0.46331114 -0.03256533
000220 68 a9 97 bd 6f 8a a7 3e a7 a1 f2 3e d6 de 38 3e
       -0.074053586 0.32722804 0.47388956 0.18053755
000230 da c3 a5 3b 25 7d c8 bb 33 87 1d be de 62 ab bd
       0.0050587477 -0.006118434 -0.15383606 -0.08368467
000240 09 78 4f be b2 98 c3 3e aa 40 06 3e 8e c5 57 3e
       -0.20260634 0.38202435 0.13110605 0.21071455
000250 40 e7 b1 3e 63 30 c4 3d 74 fe eb 3d 8d 0d 2e 3d
       0.34746742 0.095795415 0.115231425 0.04249339
000260 4a 31 7b 3d 12 9f c9 3a d5 30 2c 3f 72 3d 9d 3e
       0.061326303 0.001538249 0.6726201 0.30710942
000270 40 1f e7 3e ce 60 85 bd 23 6e c3 bd 16 3f 87 3d
       0.4514103 -0.06512605 -0.09542491 0.066038296
000280 47 86 9f 3e b1 4b ae 3d 46 90 66 be 78 c7 39 bd
       0.31157133 0.08510531 -0.22515973 -0.045356244
000290 d3 9f 53 3d c8 ef 06 3f 98 32 15 3f ce 40 90 3d
       0.051666092 0.5270963 0.58280325 0.070436105
0002a0 f0 2a 4b 3d 52 2d e5 3d e5 10 48 be 65 01 22 be
       0.049601495 0.11190285 -0.19537695 -0.15820844
0002b0 0c 3f cd 3d c5 31 96 3d 93 82 1e 3d 51 05 a6 3d
       0.10021791 0.073337115 0.038698744 0.08106483
0002c0 27 3f bb 3d 8e 1c aa 3e 1e d6 e3 3c 86 35 3b bd
       0.09142905 0.3322491 0.02781206 -0.04570534
0002d0 cf 85 28 3e 8b c1 76 bd 75 47 24 bd ef 7a 65 3c
       0.16457294 -0.06024317 -0.04010721 0.01400636
0002e0 f3 d9 27 be 22 eb 89 be 67 a2 a6 bc b3 f2 55 bd
       -0.16391735 -0.26937205 -0.020341111 -0.05223341
0002f0 df d6 85 3d ad bb d3 3b 4b aa c7 bd a5 da 25 be
       0.06535124 0.0064615817 -0.09749278 -0.16196688
000300 57 51 de 3d 94 5b f7 bd ea 96 34 3b 9e ba 7a be
       0.10855358 -0.12078014 0.0027555772 -0.24485251
000310 f7 1e fe 3e 6d e1 18 3d fa 53 02 bf 1d 90 92 3e
       0.49633 0.037324358 -0.5090939 0.28625575
000320 9a db 9c be 66 3b 88 be 7f 32 fe bd 71 9f 04 bd
       -0.30636293 -0.26607817 -0.12411975 -0.032378618
000330 2d fb c5 be e3 ba 05 bc 28 ae 85 bd 02 01 d6 bd
       -0.38668194 -0.008162233 -0.06527358 -0.10449411
000340 8c 27 74 3a 3b 32 95 3e f0 1a bc be f2 17 a0 3d
       0.0009313754 0.29139885 -0.36739302 0.07817067
000350 1c 6f 39 be 23 38 c7 be 83 31 f8 be e9 05 3d be
       -0.18108791 -0.38910016 -0.48475274 -0.18459286
000360 b0 c6 9a be 2f ca 28 be 24 bf 6e be 8b a3 c4 bc
       -0.30229712 -0.16483377 -0.23315102 -0.024003765
000370 4a 28 a9 bc 43 b6 9b be bd a9 6d be 65 7b 84 3b
       -0.020649094 -0.30412492 -0.23209281 0.00404303
000380 97 67 9b 3e cb f7 86 be fd b4 0b be a9 db bf be
       0.3035247 -0.26360926 -0.1364326 -0.37472275
000390 c1 fb f1 be d0 d5 62 3e 2c 9a 26 3e 03 be b6 3e
       -0.47262385 0.22151875 0.1626975 0.35691842
0003a0 13 a6 b1 be b8 65 09 be 1e 77 b9 be 59 fe 5b be
       -0.34697017 -0.13417709 -0.36223692 -0.21483745
0003b0 11 7a a4 be 1c 9e 73 be e0 43 a2 be ae 0b 9c be
       -0.3212438 -0.23790783 -0.3169241 -0.3047766
0003c0 c5 f2 2a be 3c 4b 84 3e f5 28 e3 be 36 e4 64 be
       -0.16694172 0.2583865 -0.44367185 -0.2235268
0003d0 1e e4 35 3f f2 95 58 be 3d 6a 94 be 5e 17 c2 3e
       0.71051204 -0.2115095 -0.28987303 0.37908453
0003e0 9b 1a a7 3e 45 64 55 bd 28 eb ed 3d e6 c2 b6 bc
       0.32637486 -0.052097578 0.11617118 -0.022309732
0003f0 3a ed d6 3d eb 04 7a be d1 d8 4b bd 6a 4c d5 3e
       0.10494466 -0.24415939 -0.04976732 0.41659862

fc1.bias f4 [64]
000000 ac 00 2e 3f f0 8d 6d 3f bd b4 79 3f 46 ce 84 3f
       0.67969775 0.92794704 0.9754141 1.037545
000010 d5 72 80 3f fc 03 34 3f 0c 83 88 3f 75 7a 5c 3f
       1.0035044 0.7031858 1.0664992 0.86124355
000020 d9 37 68 3f b5 7d 53 3f 82 c7 76 3f 98 c7 7b 3f
       0.90710217 0.8261369 0.96398175 0.9835143
000030 73 94 49 3f 13 7e 64 3f 57 8b 73 3f 68 e1 49 3f
       0.7874214 0.89254874 0.9513449 0.7885957
000040 bf 0f 6e 3f 64 c0 53 3f d3 e3 83 3f 04 5d 7c 3f
       0.92992777 0.8271544 1.0303901 0.9857943
000050 99 a5 85 3f 09 9d 81 3f bf 83 4d 3f e0 e7 76 3f
       1.0441161 1.0126048 0.80279154 0.96447563
000060 38 e1 58 3f ba 6a 4d 3f 05 6e 7f 3f 66 f5 7e 3f
       0.84718657 0.80240977 0.9977725 0.995932
000070 03 56 42 3f 3a 0a 86 3f aa ab 81 3f 38 bd 6f 3f
       0.75912493 1.0471871 1.0130513 0.936481
000080 5a da 85 3f a6 e2 5d 3f 79 0c 64 3f 65 11 77 3f
       1.0457261 0.86673963 0.8908153 0.96510917
000090 15 85 70 3f 9a 68 77 3f 1e 91 82 3f bf 14 72 3f
       0.9395307 0.96643984 1.0200536 0.94562906
0000a0 1b 35 65 3f 10 33 71 3f ed 50 86 3f 83 ed 73 3f
       0.8953416 0.9421854 1.0493447 0.9528429
0000b0 bc 23 78 3f 8c 1d 85 3f 10 ac 79 3f 9e 18 5a 3f
       0.96929526 1.0399642 0.9752817 0.8519381
0000c0 3e 4d 66 3f 42 07 5b 3f c4 79 7b 3f f4 42 86 3f
       0.8996161 0.8555795 0.98232675 1.0489182
0000d0 0e 60 80 3f 9c 31 60 3f 28 0a 63 3f f6 04 39 3f
       1.0029314 0.875757 0.8868737 0.72273195
0000e0 27 6b 51 3f 19 07 43 3f ed 8f 3c 3f c6 0b 7e 3f
       0.81804127 0.76182705 0.73657113 0.99236715
0000f0 95 76 68 3f 83 5f 65 3f 6e 5c 64 3f e8 a3 62 3f
       0.9080594 0.89598864 0.89203537 0.8853135

fc2.weight f4 [4, 64]
000000 3d 85 49 3f 93 9b 24 3f 60 b7 41 3f c8 34 43 3f
       0.7871893 0.6429989 0.75670433 0.7625241
000010 65 18 62 3f 53 e6 39 3f 6c b7 66 3f 9e 27 22 3f
       0.88318473 0.7261707 0.9012363 0.633417
000020 ea d9 26 3f f8 be 0c 3f 46 ea 37 3f 82 03 36 3f
       0.6517626 0.54978895 0.7184185 0.710991
000030 95 7b 20 3f 76 d7 f0 3e 50 06 5b 3f f9 20 46 3f
       0.6268857 0.47039384 0.8555651 0.7739406
000040 70 51 63 3f ca 9a 32 3f 8a 74 6f 3f 00 b1 69 3f
       0.8879614 0.6976744 0.935372 0.91285706
000050 c7 4d 24 3f d4 29 3d 3f 08 8f d0 3e 7e b6 67 3f
       0.6418118 0.7389195 0.40734124 0.90512836
000060 1b f6 42 3f 74 bd 1e 3f ca 9a 4e 3f fa 7c 41 3f
       0.7615678 0.6200783 0.8070494 0.75581324
000070 9b b9 3d 3f bb ec 35 3f 63 87 68 3f 2f 73 06 3f
       0.74111336 0.7106435 0.90831584 0.52519506
000080 c2 43 7d 3f 80 69 16 3f bd 8c 2f 3f 92 fb 68 3f
       0.98931515 0.5875473 0.68574125 0.91008866
000090 d2 80 55 3f f8 c5 54 3f f1 c1 5b 3f e0 92 2f 3f
       0.8339969 0.83114576 0.85842806 0.6858349
0000a0 f8 ea 13 3f 2f 63 45 3f d7 1b 75 3f 44 7e 32 3f
       0.5778041 0.7710447 0.95745605 0.69723916
0000b0 b5 2a 4e 3f bb 26 6c 3f ad d6 66 3f 64 bb 0d 3f
       0.80533916 0.922466 0.9017132 0.5536406
0000c0 9b 48 03 3f 01 ff 23 3f 29 d8 3c 3f 94 bc 27 3f
       0.5128266 0.6406098 0.73767334 0.6552212
0000d0 cc 13 43 3f 57 bb 58 3f f1 1a 07 3f 77 41 58 3f
       0.7620208 0.8466086 0.52775484 0.8447489
0000e0 37 c1 f1 3e ca 71 71 3f a5 5f 34 3f 86 ba 57 3f
       0.47217724 0.94314253 0.7045844 0.8426899
0000f0 f8 89 39 3f e3 8b 57 3f e0 1e 4a 3f 35 11 4d 3f
       0.7247615 0.84197825 0.7895336 0.8010438
000100 46 f6 eb 3e 70 c7 5b 3f b7 d5 75 3f 5b 5a 69 3f
       0.4608633 0.8585119 0.9602923 0.91153497
000110 60 29 55 3f 66 2f 24 3f 01 f9 01 3f 62 33 2a 3f
       0.8326626 0.64134824 0.50770575 0.66484654
000120 16 18 89 3f dd 72 15 3f ce ec 62 3f 66 37 1a 3f
       1.0710475 0.5837839 0.88642585 0.6024078
000130 08 7c e8 3e 6d f4 57 3f 70 59 80 3f a9 3f 38 3f
       0.45407128 0.8435734 1.0027294 0.7197214
000140 b1 da 56 3f 2d 5c 1f 3f 18 13 2a 3f 1c 7c 45 3f
       0.83927447 0.62250024 0.66435385 0.771425
000150 f3 f2 34 3f 79 9e 6f 3f 1a 00 50 3f 55 ed 49 3f
       0.7068321 0.93601185 0.81250155 0.78877765
000160 15 c1 2b 3f e6 1c 3b 3f d6 a3 75 3f da 68 59 3f
       0.67091495 0.7309097 0.9595312 0.84925616
000170 b8 21 0a 3f d5 9a 82 3f 2c 3d 05 3f 8f 77 74 3f
       0.539577 1.0203501 0.52046466 0.9549493
000180 39 ea 25 3f 1a 40 22 3f a7 73 3c 3f 5e e8 22 3f
       0.6481052 0.6337906 0.7361397 0.63635814
000190 f8 96 26 3f 61 f3 4d 3f e3 55 37 3f a2 50 61 3f
       0.6507411 0.8044949 0.7161543 0.8801366
0001a0 7d 8d 6d 3f d4 1c 37 3f 15 f0 37 3f 90 8a 5c 3f
       0.9279402 0.71528363 0.7185071 0.8614893
0001b0 4a 49 16 3f f3 40 1f 3f 63 72 6b 3f 73 55 42 3f
       0.5870558 0.6220848 0.91971415 0.75911635
0001c0 84 0c 51 3f 0a 44 3f 3f 8c fc 75 3f f1 2e 4b 3f
       0.8165972 0.74713194 0.9608848 0.793685
0001d0 12 cc 6e 3f 03 af 24 3f 41 00 60 3f 36 d4 03 3f
       0.93280137 0.64329547 0.8750039 0.51495683
0001e0 30 e1 49 3f cb 27 0b 3f a4 4f c8 3e 09 5a 5c 3f
       0.78859234 0.54357594 0.3912326 0.8607488
0001f0 f9 e7 54 3f 38 6c 5c 3f d1 37 5a 3f 3b 7f 2b 3f
       0.8316646 0.8610263 0.8524142 0.66991013
000200 2f ce 2c 3f 05 dc 1e 3f 2d 73 66 3f 6b 6d 2f 3f
       0.6750211 0.62054473 0.90019494 0.68526334
000210 33 be 45 3f 17 f7 ff 3e 15 fa 3f 3f 39 df 4f 3f
       0.77243346 0.49993202 0.7499097 0.81199986
000220 a2 09 32 3f b8 e4 3e 3f 6c a5 43 3f a5 ec 6c 3f
       0.6954595 0.7456775 0.7642429 0.9254859
000230 10 4b 46 3f de eb 36 3f 38 50 85 3f 1f 17 19 3f
       0.77458286 0.71453655 1.0415106 0.59800905
000240 79 e4 50 3f ff 9a 27 3f d3 7b 4b 3f 2b e3 49 3f
       0.8159862 0.6547088 0.79485816 0.78862256
000250 b0 4a 6c 3f ec b6 32 3f 03 1a 1f 3f e6 ee 34 3f
       0.92301464 0.69810367 0.62149066 0.7067703
000260 be d3 53 3f a3 19 3d 3f 9c e1 4f 3f 15 5c 46 3f
       0.8274497 0.73867244 0.8120363 0.77484256
000270 2a b6 fd 3e a0 d5 3c 3f d5 a5 2f 3f 14 20 66 3f
       0.49553043 0.73763466 0.68612415 0.898927
000280 bc de 5b 3f a0 24 53 3f 98 c0 58 3f 20 4e 3c 3f
       0.8588674 0.8247776 0.84668875 0.7355671
000290 e3 b4 5b 3f 0a 46 15 3f e3 e1 33 3f db 0c 21 3f
       0.85822886 0.58309996 0.7026655 0.6291024
0002a0 69 c6 48 3f 50 59 3f 3f dd 2a 38 3f dc 89 12 3f
       0.7842775 0.74745655 0.71940404 0.57241607
0002b0 a0 42 5d 3f 45 0e 6b 3f 11 67 43 3f b6 28 60 3f
       0.86429787 0.9181865 0.7632914 0.8756212
0002c0 f4 ce 2a 3f 88 27 03 3f bd 54 5e 3f cf 50 3f 3f
       0.66722035 0.51232195 0.8684805 0.7473268
0002d0 78 fb 01 3f 99 0f 0c 3f 4b 84 6e 3f 05 55 1b 3f
       0.50774336 0.547113 0.93170613 0.60676605
0002e0 d5 00 40 3f 0c f6 3e 3f 89 35 2a 3f 67 fc 49 3f
       0.7500127 0.7459419 0.6648794 0.7890076
0002f0 22 07 6d 3f a6 0c 4e 3f f9 ce 51 3f 85 cb 47 3f
       0.9258901 0.8048805 0.8195644 0.7804492
000300 52 87 1b 3f 1c 1f 7a 3f 5c de 5a 3f ef c6 49 3f
       0.6075336 0.9770372 0.85495543 0.78819174
000310 62 22 40 3f f1 82 21 3f 9c 28 15 3f 3c fa 2c 3f
       0.75052464 0.63090426 0.5826509 0.6756933
000320 d9 75 38 3f 50 80 48 3f 4b a8 52 3f 70 50 31 3f
       0.7205482 0.7832079 0.82288045 0.6926336
000330 f0 9a 37 3f bf 5e 7b 3f ff 7e 59 3f ef 5b 3c 3f
       0.7172079 0.98191446 0.84959406 0.7357778
000340 73 2f 74 3f fb 7f 32 3f a6 59 19 3f 76 f8 17 3f
       0.953849 0.6972653 0.5990242 0.59363496
000350 d5 70 79 3f 84 06 4e 3f 42 37 67 3f 7e 4a 41 3f
       0.97437793 0.8047869 0.9031869 0.7550429
000360 27 eb 0d 3f 66 1b 4b 3f f4 d8 22 3f 58 ac 1a 3f
       0.5543694 0.7933868 0.63612294 0.60419226
000370 e1 d0 5b 3f c5 ed 40 3f 7a 57 4c 3f 81 38 33 3f
       0.858656 0.7536281 0.7982098 0.70008093
000380 6f 2a 4b 3f a5 05 1a 3f 38 6b 03 3f 50 db 20 3f
       0.79361624 0.6016486 0.5133548 0.62834644
000390 37 a0 34 3f 63 2f 5c 3f bf f2 64 3f d0 00 66 3f
       0.7055697 0.86009806 0.894329 0.8984499
0003a0 9b dd 30 3f 13 54 46 3f 69 0d 41 3f ee 0e 0d 3f
       0.69088143 0.7747204 0.7541109 0.55100906
0003b0 f5 25 36 3f 2f a3 3e 3f 64 7d 54 3f d9 4c 57 3f
       0.7115167 0.7446775 0.8300383 0.84101635
0003c0 e1 5d 30 3f c6 70 1c 3f 92 29 52 3f 99 6e 4a 3f
       0.6889325 0.6110958 0.8209468 0.7907501
0003d0 c2 05 2f 3f df 27 17 3f c4 cb 71 3f 78 a9 33 3f
       0.6836816 0.59045213 0.94451547 0.70180464
0003e0 1e ce 80 3f a6 5f 0c 3f a8 45 1c 3f 0f 74 41 3f
       1.0062902 0.5483345 0.61043787 0.75567716
0003f0 b0 f1 1f 3f c1 af 6d 3f a5 1b 59 3f 78 af 4a 3f
       0.6247816 0.92846304 0.8480781 0.79173994

fc2.bias f4 [4]
000000 fe 4f 46 3f d3 99 3b 3f 96 4f 5a 3f f0 e7 06 3f
       0.7746581 0.7328159 0.8527769 0.5269766
