model.pth (torch, 33683 bytes, 4 tensors)

fc1.weight f4 [64, 121]
-0.17913125 -0.26893678 -0.20916556 0.16235217 0.1059632 0.7181918 0.5403631 0.36335385
0.1749784 0.14561664 -0.3948188 -0.2836295 -0.36935532 -0.12062673 -0.007147946 0.14925474
0.5156006 0.34487173 0.43940243 0.16145475 0.41164812 -0.17248718 -0.20060492 -0.27631947
-0.3064186 -0.0320569 -0.089368545 0.220794 0.1862218 0.30441007 0.09972121 0.43568957
-0.29882964 -0.29468307 -0.26081994 -0.2362802 -0.047863975 -0.14243038 -0.081351444 0.006320265
0.24918716 0.109680764 0.012395545 -0.21844867 -0.0142537635 -0.3091964 -0.23522715 -0.0565461
0.49584067 0.13801841 0.1539564 0.33698827 0.18134473 -0.054770034 -0.121953435 -0.32043982
-0.18652248 -0.27792698 -0.20976743 0.00871717 0.008358643 0.018652014 0.21737428 0.20672515
0.052862123 -0.113946676 0.021126883 0.021592015 -0.26274157 0.011766028 0.2066123 0.23960783
-0.070696086 -0.14965752 -0.10755679 0.14968899 0.067771204 0.0039728926 0.17999616 0.22494805
0.010191291 -0.2583668 0.12675105 0.04820886 -0.010443553 -0.05969037 0.32899296 -0.0636117
0.26394042 0.3975469 0.05382139 0.08830631 -0.008035208 0.59670997 0.46154246 0.3560377
0.29807183 0.2936421 0.12243629 0.1945594 0.1942244 0.02864264 -0.015115778 0.19912781
0.60958505 0.59227604 0.47493505 0.51628244 0.11775283 0.47338775 0.03612163 -0.16101308
0.1837035 0.20224951 -0.22691338 0.1736299 0.37147874 0.27402118 0.23848094 0.38170707
-0.5646524 -0.23851839 -0.3210398 0.046180524 0.1505422 0.38712126 0.63933665 0.33202672
0.37046278 -0.1412242 0.099762544 -0.35455838 -0.33201006 -0.25846118 -0.31061068 0.2753344
0.0012047184 0.45504376 0.40483457 0.49584985 0.17296205 0.45252824 -0.041813996 -0.28328037
-0.45996588 -0.41892928 0.1764815 0.074425235 0.12612556 0.086519666 0.32497987 0.17461666
0.38184187 -0.17662475 -0.12977202 -0.31752902 -0.1454626 -0.0933214 -0.029032439 0.018502207
0.13089538 0.1718425 0.18449071 0.11376108 -0.19610651 -0.29401296 -0.39464492 -0.23123032
0.19425225 0.65057915 0.30200872 0.09897279 0.2914633 0.11577726 0.17077999 -0.11976389
-0.30036774 -0.15992285 0.14898227 0.52618986 0.46814433 0.018514398 -0.012026164 0.29968974
-0.051925432 0.16838367 -0.22469865 -0.20084369 -0.030250723 -0.329929 0.122534305 0.40517056
0.1485511 0.073727205 0.027077535 0.034483463 0.31273347 -0.049887456 0.05116125 0.029643588
-0.24706495 0.0078955125 0.29046497 0.11498529 -0.20339094 -0.07399249 -0.0327698 0.38165894
-0.12238028 0.17008013 0.229195 0.047311943 0.23274887 0.33907685 0.5454171 0.4836829
0.3254906 0.32686663 0.09246214 0.030193167 0.04425529 0.052916646 0.2206196 -0.13496904
0.2492495 0.6228893 0.6563391 0.49517983 0.35599712 0.109183244 0.3725018 -0.31383705
-0.23979168 0.008797663 0.15491647 -0.20915718 0.1458997 0.10592061 0.058280464 0.13112296
0.37427437 -0.34336305 -0.18414427 -0.31805423 -0.078438774 0.12651463 0.21882007 0.61471003
0.4149619 0.1979224 -0.1364889 0.2980071 -0.31781727 -0.16573311 -0.3108043 -0.087658666
00000000: 2f6e 37be 15b2 89be 7f2f 56be a63f 263e
00000010: 3c03 d93d 6bdb 373f 3c55 0a3f 8409 ba3e
00000020: 8a2d 333e 871c 153e b125 cabe e337 91be
00000030: 241c bdbe 260b f7bd 5139 eabb 3cd6 183e
00000040: 67fe 033f 0793 b03e 5bf9 e03e 6554 253e
00000050: 8bc3 d23e 7ba0 30be 606b 4dbe bf79 8dbe
00000060: e6e2 9cbe 194e 03bd db06 b7bd d317 623e
00000070: edb0 3e3e a3db 9b3e a23a cc3d b412 df3e
00000080: 3300 99be b3e0 96be 318a 85be 70f3 71be
00000090: 040d 44bd 45d9 11be 969b a6bd 3a1a cf3b
000000a0: eb2a 7f3e 4fa0 e03d af16 4b3c 02b1 5fbe
000000b0: 9e88 69bc fe4e 9ebe 63df 70be e29c 67bd
000000c0: d4de fd3e b354 0d3e bfa6 1d3e ba89 ac3e
000000d0: 6fb2 393e 8b56 60bd b9c2 f9bd b010 a4be
000000e0: c0ff 3ebe 724c 8ebe 46cd 56be 76d2 0e3c
000000f0: b1f2 083c 1ccc 983c 5d97 5e3e c2af 533e
00000100: f485 583d e05c e9bd 4912 ad3c bde1 b03c
00000110: 1086 86be 4cc6 403c 2d92 533e c15b 753e
00000120: 1cc9 90bd d23f 19be bc46 dcbd 1248 193e
00000130: a1cb 8a3d 0a2f 823b ea50 383e c858 663e
00000140: 5ff9 263c a748 84be 07cb 013e a776 453d
00000150: 701b 2bbc e47d 74bd c471 a83e da46 82bd
00000160: 3323 873e 448b cb3e d173 5c3d f0d9 b43d
00000170: 1ba6 03bc fcc1 183f 4b4f ec3e 934a b63e
00000180: df9c 983e 4258 963e e1bf fa3d 943a 473e
00000190: c3e2 463e f8a3 ea3c 2ba8 77bc 29e8 4b3e
000001a0: c40d 1c3f 679f 173f b02a f33e 162b 043f
000001b0: 6528 f13d e15f f23e 46f4 133d 9de0 24be
000001c0: c51c 3c3e 7f1a 4f3e fb5b 68be 09cc 313e
000001d0: 7632 be3e 814c 8c3e 5934 743e 1c6f c33e
000001e0: 0f8d 10bf 2a3e 74be 545f a4be ca27 3d3d
000001f0: bc27 1a3e c234 c63e 91ab 233f 68ff a93e
00000200: 4cad bd3e 149d 10be 4e50 cc3d ad88 b5be
00000210: 39fd a9be 0655 84be 5d08 9fbe a1f8 8c3e
00000220: a4e7 9d3a 7ffb e83e 7a46 cf3e 08e0 fd3e
00000230: f71c 313e c8b1 e73e 2745 2bbd 200a 91be
00000240: a680 ebbe e67d d6be 91b7 343e 426c 983d
00000250: 0f27 013e 3931 b13d c363 a63e b6ce 323e
00000260: c780 c33e 1edd 34be f5e2 04be 2a93 a2be
00000270: 26f4 14be 4a1f bfbd 70d5 edbc f191 973c
00000280: 7009 063e 7bf7 2f3e 22eb 3c3e 92fb e83d
00000290: 25d0 48be de88 96be e60e cabe a4c7 6cbe
000002a0: 10ea 463e 5b8c 263f e3a0 9a3e 3fb2 ca3d
000002b0: ad3a 953e a11c ed3d f3e0 2e3e c546 f5bd
000002c0: cdc9 99be d1c2 23be cf8e 183e 61b4 063f
000002d0: 9db0 ef3e 82ab 973c 6309 45bc ef70 993e
000002e0: c3af 54bd c56c 2c3e 6717 66be f8a9 4dbe
000002f0: 5dd0 f7bc 74ec a8be 44f3 fa3d 8472 cf3e
00000300: c81d 183e 4afe 963d b5d1 dd3c 883e 0d3d
00000310: 9a1e a03e ca56 4cbd 758e 513d 1cd7 f23c
00000320: 98fe 7cbe 2e5c 013c d3b7 943e 687d eb3d
00000330: b745 50be 6089 97bd a039 06bd cd68 c33e
00000340: 83a2 fabd 7c29 2e3e 18b2 6a3e 2bca 413d
00000350: b855 6e3e 7b9b ad3e 74a0 0b3f 49a5 f73e
00000360: b4a6 a63e 105b a73e ca5c bd3d a957 f73c
00000370: 0945 353d 20bf 583d 1bea 613e 5335 0abe
00000380: 433b 7f3e ac75 1f3f d705 283f 3688 fd3e
00000390: 4145 b63e 779b df3d 8eb8 be3e 40af a0be
000003a0: f38b 75be 1324 103c 6ca2 1e3e 4d2d 56be
000003b0: bb66 153e e8ec d83d 7fb7 6e3d 1945 063e
000003c0: e4a0 bf3e 48cd afbe 5190 3cbe 01d8 a2be
000003d0: 82a4 a0bd 0d8d 013e 5e12 603e a35d 1d3f
000003e0: e375 d43e 2bac 4a3e bfc3 0bbe 6394 983e
000003f0: f2b8 a2be f1b5 29be be21 9fbe 6386 b3bd

fc1.bias f4 [64]
1.2075795 1.3033239 1.2158096 1.2537225 1.3323601 1.2795182 1.372637 1.2433742
1.3195585 1.250468 1.1832852 1.304012 1.3222339 1.1555586 0.8189191 1.4540464
1.3991317 1.2536373 0.9450094 1.3771482 0.97125995 1.3599678 0.8713092 1.2837653
1.387298 1.1490729 1.0812213 1.1764833 1.3530015 1.3537937 1.2686229 1.0906025
1.338496 1.3182849 1.3507241 1.3214656 1.3053917 1.2031361 1.3426396 1.2989479
1.2259067 1.3787671 1.3377538 1.2943516 1.3329122 1.2834753 1.2020478 1.2365198
1.3255053 1.3005925 1.2551843 1.333444 1.3321248 1.3365449 1.328897 1.2738144
1.3269733 1.3422189 1.2985829 1.364936 1.3326184 1.2844137 1.2851945 1.2188234
00000000: f791 9a3f 51d3 a63f a69f 9b3f fb79 a03f
00000010: c78a aa3f 41c7 a33f 92b2 af3f e326 9f3f
00000020: 4be7 a83f 560f a03f e475 973f dde9 a63f
00000030: f63e a93f 58e9 933f afa4 513f 311e ba3f
00000040: bf16 b33f 3077 a03f 23ec 713f 6446 b03f
00000050: 7ea4 783f 6d13 ae3f 1f0e 5f3f 6c52 a43f
00000060: fb92 b13f d214 933f 7665 8a3f 0197 963f
00000070: 272f ad3f 1d49 ad3f 3c62 a23f dd98 8b3f
00000080: d653 ab3f 8fbd a83f 87e4 ac3f c925 a93f
00000090: 1317 a73f 5d00 9a3f 9ddb ab3f ed43 a63f
000000a0: 83ea 9c3f 717b b03f 843b ab3f 50ad a53f
000000b0: de9c aa3f eb48 a43f b4dc 993f 4846 9e3f
000000c0: 28aa a93f d179 a63f e1a9 a03f 4bae aa3f
000000d0: 1183 aa3f e713 ab3f 4c19 aa3f 5a0c a33f
000000e0: 43da a93f d4cd ab3f f737 a63f 39b6 ae3f
000000f0: 3d93 aa3f ab67 a43f 4181 a43f 6802 9c3f

fc2.weight f4 [4, 64]
0.63683444 0.5815041 0.7154149 0.7841211 0.79242724 0.73928046 0.86009824 0.95747685
0.7982032 0.90344924 0.59884053 0.8126065 0.8548279 0.75002444 0.36169103 0.90927213
0.8974268 0.6174481 0.19839047 0.77158284 0.5858451 0.906434 0.41388822 0.75611085
0.6288604 0.72023493 0.58319056 0.6289532 0.6761629 0.8456719 0.7319713 0.67986435
0.6128201 0.8798516 0.7189293 0.6954277 0.7059705 0.70798856 0.87178385 0.7397226
0.6976404 0.8450004 0.899784 0.76930195 0.95700276 0.78498733 0.645946 0.6427051
0.79758763 0.83904606 0.9761678 0.7563183 0.6383634 0.6858214 0.81537014 0.68664277
0.84806925 0.80878997 0.78354317 0.7791424 0.78801274 0.5869404 0.73258984 0.6145872
0.77277553 0.82964844 0.9136019 0.68360156 0.7436051 0.8770463 0.54252994 0.7326676
0.85906327 0.93628263 0.72450554 0.8960739 0.75600564 0.4654201 0.87490034 0.65843666
0.5872215 0.8692137 -0.10557814 0.79537624 0.4489371 0.9146319 1.171785 0.68763465
0.80647904 0.73791206 0.8841552 0.82372665 0.870913 0.8198314 0.7746942 1.1836647
0.83267313 0.4977054 0.9510369 0.8131994 0.65241784 0.6280972 0.7531684 0.65781826
0.8664667 0.61288023 0.59242576 0.8666586 0.5979595 0.8060502 0.7815013 1.0008298
0.42943972 0.72060776 0.62722397 0.9281612 0.91964656 0.9931336 0.767985 0.7740344
0.7252826 0.88032687 0.6500203 0.9642529 0.80811757 0.6384176 0.8487137 0.6379618
0.7170349 0.77089936 0.7581129 0.9046764 0.6166028 0.89342356 0.7710936 0.6150579
0.7787379 0.47924933 0.8279956 0.58965206 0.6906679 0.9578514 1.1218659 0.82201815
1.0458267 0.6111039 1.3285154 0.85202235 1.0279524 0.6003315 0.7595883 0.7929074
0.75597733 0.8305425 0.7927679 0.84443957 0.5613208 0.91862774 0.8620182 0.64323
0.8582678 0.88402206 0.803303 0.665695 0.7738332 0.9030517 0.673821 0.8093467
0.590438 0.6257329 0.8166988 0.8818722 0.78987277 0.9804327 1.0264864 0.682809
1.0544205 0.55536294 0.53832674 0.6422454 0.65626943 0.8203326 0.92908037 0.62562555
0.7250371 0.645922 0.8007606 0.60139 0.7443074 0.57552916 0.8885819 0.8362122
0.5289963 0.74553496 0.72120005 0.70671815 0.8148732 0.61258584 0.72817254 0.51774174
0.86063105 0.8819687 1.0347649 0.5859409 0.72857475 0.9112662 0.90862244 0.69895136
0.70929307 0.7448765 1.2114749 0.6279505 0.910568 0.6557043 0.830925 0.7976494
0.7563085 0.44886234 0.42571768 0.59814 0.78867245 0.46737558 0.86001587 0.6093244
0.77621 0.78999054 0.6921882 0.96121216 0.54725283 0.7534017 0.79978454 0.619572
0.6809401 0.89292526 0.7835374 0.46296954 0.74711907 0.8160377 0.6643406 0.74614185
0.8373438 0.72040886 0.9105863 0.5115901 0.96957237 0.6744548 0.54994774 0.9505351
0.49004078 0.77361226 0.7727518 0.85724217 0.70360434 1.1913851 0.61905324 0.61814564
00000000: 9507 233f 74dd 143f 6e25 373f 29bc 483f
00000010: 83dc 4a3f 7c41 3d3f 662f 5c3f 341d 753f
00000020: 0b57 4c3f 7348 673f 9d4d 193f fb06 503f
00000030: 00d6 5a3f 9a01 403f 912f b93e 0fc6 683f
00000040: c3bd 653f 1411 1e3f df26 4b3e 7486 453f
00000050: f2f9 153f 0f0c 683f 28e9 d33e 7b90 413f
00000060: fffc 203f 5161 383f fa4b 153f 1403 213f
00000070: 0319 2d3f f47d 583f 7962 3b3f 970b 2e3f
00000080: c7e1 1c3f f43d 613f c00b 383f 8d07 323f
00000090: 7cba 343f bd3e 353f 3a2d 5f3f 765e 3d3f
000000a0: 9098 323f f251 583f 3f58 663f f9f0 443f
000000b0: 22fe 743f eef4 483f b85c 253f 5288 243f
000000c0: b42e 4c3f b9cb 563f 22e6 793f 139e 413f
000000d0: c96b 233f fe91 2f3f 19bc 503f d2c7 2f3f
000000e0: 111b 593f dc0c 4f3f 4996 483f e075 473f
000000f0: 34bb 493f ba41 163f 028b 3b3f 9655 1d3f
00000100: 9ed4 453f d763 543f d0e1 693f 8300 2f3f
00000110: e75c 3e3f 1b86 603f 3ee3 0a3f 1b90 3b3f
00000120: 92eb 5b3f 38b0 6f3f 3279 393f 1965 653f
00000130: 9689 413f 8b4b ee3e 78f9 5f3f 4e8f 283f
00000140: 2654 163f ca84 5e3f 5a39 d8bd c79d 4b3f
00000150: 15db e53e 5125 6a3f 0dfd 953f d308 303f
00000160: 6975 4e3f cee7 3c3f ff57 623f c0df 523f
00000170: 28f4 5e3f 78e0 513f 5c52 463f 5382 973f
00000180: 112a 553f 3ed3 fe3e 2777 733f d62d 503f
00000190: db04 273f faca 203f a5cf 403f c766 283f
000001a0: c3d0 5d3f b8e5 1c3f 37a9 173f 57dd 5d3f
000001b0: e013 193f 4e59 4e3f 7810 483f 311b 803f
000001c0: 86df db3e c079 383f c091 203f f99b 6d3f
000001d0: f56d 6b3f 013e 7e3f aa9a 443f 1e27 463f
000001e0: 1fac 393f 1a5d 613f bb67 263f 47d9 763f
000001f0: cbe0 4e3f 566f 233f 4d45 593f 7751 233f
00000200: 998f 373f a959 453f b013 423f df98 673f
00000210: aed9 1d3f 68b7 643f 6466 453f 6f74 1d3f
00000220: 5e5b 473f 2b60 f53e 85f7 533f 70f3 163f
00000230: 9dcf 303f c035 753f 4d99 8f3f c86f 523f
00000240: a6dd 853f 4e71 1c3f cb0c aa3f 231e 5a3f
00000250: f293 833f 53af 193f 6174 423f fbfb 4a3f
00000260: bb87 413f 6f9e 543f d6f2 4a3f 312d 583f
00000270: b8b2 0f3f 302b 6b3f 3aad 5c3f b9aa 243f
00000280: 70b7 5b3f 454f 623f 44a5 4d3f fd6a 2a3f
00000290: ef19 463f 652e 673f 887f 2c3f 5831 4f3f
000002a0: f226 173f 0830 203f 2c13 513f 60c2 613f
000002b0: 1a35 4a3f a3fd 7a3f e863 833f 92cc 2e3f
000002c0: 40f7 863f 442c 0e3f c8cf 093f 326a 243f
000002d0: 4601 283f 5101 523f 36d8 6d3f ff28 203f
000002e0: 089c 393f 255b 253f a6fe 4c3f b2f4 193f
000002f0: ee8a 3e3f e155 133f 1a7a 633f 0112 563f
00000300: 4d6c 073f 61db 3e3f 91a0 383f 7beb 343f
00000310: 889b 503f 6dd2 1c3f 8469 3a3f b98a 043f
00000320: 5152 5c3f b3c8 613f 2d73 843f 3900 163f
00000330: e083 3a3f be48 693f 7b9b 683f 7aee 323f
00000340: 3b94 353f 3ab0 3e3f 9c11 9b3f 5dc1 203f
00000350: fc1a 693f 3ddc 273f 80b7 543f c032 4c3f
00000360: 6f9d 413f 49d1 e53e abf7 d93e b41f 193f
00000370: 70e6 493f da4b ef3e 002a 5c3f affc 1b3f
00000380: b3b5 463f d23c 4a3f 3f33 313f 0012 763f
00000390: c318 0c3f efde 403f aebe 4c3f 459c 1e3f
000003a0: 1752 2e3f c096 643f e895 483f 580a ed3e
000003b0: 3243 3f3f d9e7 503f 3a12 2a3f 2703 3f3f
000003c0: 2a5c 563f b76c 383f 2f1c 693f 92f7 023f
000003d0: e535 783f 12a9 2c3f 60c9 0c3f 4556 733f
000003e0: a0e6 fa3e 740b 463f 10d3 453f 3974 5b3f
000003f0: 6a1f 343f 4f7f 983f 467a 1e3f cb3e 1e3f

fc2.bias f4 [4]
0.76287067 0.8815697 0.9625321 0.93610567
00000000: 7e4b 433f 8dae 613f 8168 763f 9fa4 6f3f
