model.pth (torch, 33683 bytes, 4 tensors)

fc1.weight f4 [64, 121]
000000 07 51 74 be 4f 14 88 be 89 95 eb bd 22 29 83 3e
       -0.23859034 -0.26577994 -0.11503131 0.2561732
000010 52 e0 a3 3d 68 94 1f 3f a6 ee 21 3f d2 63 c9 3e
       0.0800177 0.62335825 0.63254774 0.3933397
000020 38 c1 ba 3d 4a 96 57 3e e1 a7 ae be 2a 65 8c be
       0.09118885 0.21053424 -0.34112456 -0.27420932
000030 8a f8 9a be e7 f5 07 be 51 39 ea bb 39 5f 6e 3e
       -0.30267745 -0.13277398 -0.007147946 0.23278512
000040 1d c7 e2 3e 81 d1 db 3e d2 28 d8 3e 6f 9c 7b 3e
       0.44292536 0.42933276 0.42218643 0.24571393
000050 cb 9a 04 3f 6c 80 9a bd b4 2b 84 be ec 2c 8c be
       0.51798695 -0.07544026 -0.25814593 -0.27378023
000060 ff c5 d4 be 19 4e 03 bd 5e 24 92 bd 02 df 43 3e
       -0.4155731 -0.0320569 -0.07135843 0.1912804
000070 1a 60 87 3e fb 26 8d 3e 66 5a 43 3d fa 8a b4 3e
       0.26440507 0.27568802 0.047693633 0.3526228
000080 c0 05 86 be 46 03 bf be 4f 9a 8c be 3a 09 ae be
       -0.26176262 -0.37307185 -0.27461478 -0.33991414
000090 04 0d 44 bd e4 d3 f8 bd 46 de 29 bd 05 26 61 bd
       -0.047863975 -0.1214979 -0.041471742 -0.0549679
0000a0 eb 2a 7f 3e 32 2d 62 3c fb 9e b4 bd 6b 67 58 be
       0.24918716 0.013804721 -0.088193856 -0.21133201
0000b0 13 93 c5 3a 3c 22 d3 be b2 bb 60 be ff 1e 85 bd
       0.0015073739 -0.41237056 -0.219466 -0.06500053
0000c0 b7 ac cc 3e 00 ed 58 3e b5 47 9c 3d c2 f7 84 3e
       0.3997552 0.21184158 0.076308645 0.25970274
0000d0 47 0f 7e 3e 58 e6 08 be 1f 35 38 be b2 7a a7 be
       0.24810515 -0.13369119 -0.17989014 -0.32710797
0000e0 6d 2e 6d be 72 4c 8e be 64 8d 95 be 03 d7 db 3c
       -0.23162241 -0.27792698 -0.29209435 0.026835924
0000f0 e1 66 80 3d 55 36 ca bd 28 84 07 3e 41 5d 2a 3e
       0.062696226 -0.09873644 0.13234007 0.16637136
000100 f4 85 58 3d 1c f5 04 bd ab fc ad 3d d6 76 53 3d
       0.052862123 -0.032460317 0.08495458 0.051627003
000110 ee c4 77 be ce 1a 14 ba a0 b9 99 3e c1 5b 75 3e
       -0.24196216 -0.0005649746 0.30024433 0.23960783
000120 16 b2 d6 bc 11 98 1d be ab 0d a0 bd 12 48 19 3e
       -0.026207965 -0.1539004 -0.07815107 0.14968899
000130 09 e8 1b 3e d8 3d df bc 96 15 0b 3e c1 e0 17 3e
       0.15225233 -0.02725117 0.13582453 0.1483183
000140 c8 96 14 3d f0 8a 51 be 5a 0e 57 3e 5b 23 ee 3d
       0.03627661 -0.20463157 0.21001568 0.11627837
000150 d5 eb 4f 3d 98 4f 97 bc aa 0d 62 3e 47 e0 20 bd
       0.050762016 -0.01847057 0.22075525 -0.039276388
000160 55 08 a0 3e bd 3a ca 3e df d2 31 3b eb 16 ae 3d
       0.31256357 0.3949794 0.0027133746 0.08500465
000170 1b a6 03 bc fc c1 18 3f 4b 4f ec 3e 56 1d b6 3e
       -0.008035208 0.59670997 0.46154246 0.35569257
000180 df 9c 98 3e 42 58 96 3e 87 48 8a 3d 35 59 80 3e
       0.29807183 0.2936421 0.06752115 0.2506806
000190 d6 97 70 3e a6 4b 69 3c 5f f9 9f bd 29 e8 4b 3e
       0.23495421 0.014239227 -0.07811236 0.19912781
0001a0 c4 0d 1c 3f 67 9f 17 3f b0 2a f3 3e f8 96 cf 3e
       0.60958505 0.59227604 0.47493505 0.40544868
0001b0 65 28 f1 3d ae f7 0d 3f 84 e3 c5 3c 17 c1 2a be
       0.11775283 0.55456054 0.02415634 -0.1667522
0001c0 53 35 ce 3d b1 81 1e 3e 7b 37 1b be 2f 70 9f 3d
       0.100687645 0.15479161 -0.15157883 0.07785069
0001d0 3c 37 cd 3e 46 2d 75 3e 20 48 65 3e 8d 8e ba 3e
       0.40081203 0.23943052 0.22390795 0.36436883
0001e0 7c ff 1c bf bf fe 9a be da f7 a3 be cd ec fc 3d
       -0.6132734 -0.3027248 -0.32025033 0.12349854
0001f0 e4 5c 7e 3e ad bd b7 3e dc 65 10 3f db 1e e1 3e
       0.24840122 0.358869 0.56405425 0.43968853
000200 7f 9f d9 3e 3b 20 2a be ac 64 40 3e ed 87 98 be
       0.42504498 -0.16613857 0.18788403 -0.29791203
000210 e2 5d a2 be cd 85 44 be 6b bb 9f be a1 f8 8c 3e
       -0.31712252 -0.19191666 -0.31197676 0.2753344
000220 79 34 b9 3d 3b d5 c8 3e 58 4d 07 3f b7 ab ef 3e
       0.090432115 0.39225182 0.5285239 0.46810696
000230 49 56 60 3e 3a 04 0f 3f f8 65 55 3d 70 eb ad be
       0.21907915 0.55865824 0.052099198 -0.33968687
000240 aa cd ea be 67 ec 08 bf 91 b7 34 3e 23 16 c9 3d
       -0.45860034 -0.5348572 0.1764815 0.09818675
000250 5c 09 07 3e 90 c6 20 3e 67 e9 99 3e f0 24 f7 3d
       0.13187164 0.15700746 0.30060884 0.12067592
000260 00 da 97 3e ac 4e 15 be 10 74 65 be a6 59 a9 be
       0.29658508 -0.14580792 -0.22407556 -0.3307621
000270 76 a4 83 be 4a 1f bf bd 50 67 ba bc 56 45 80 3d
       -0.2571141 -0.0933214 -0.022754341 0.06263225
000280 6f 2c 69 3d 7b f7 2f 3e e0 ad 95 3d a0 93 b3 b8
       0.05692714 0.1718425 0.07308555 -8.5628824e-05
000290 34 1f 47 be 1e 00 99 be 6c 15 01 bf 2c 96 6f be
       -0.19445497 -0.29882902 -0.5042331 -0.2339713
0002a0 95 16 13 3e 37 d6 0a 3f 3e d6 c2 3e fc 21 a8 3c
       0.14364083 0.54233116 0.3805408 0.020524018
0002b0 18 26 5b 3e 26 79 40 3e 0d c4 b7 3d be e4 2b be
       0.2140125 0.18796214 0.089729406 -0.16786477
0002c0 c6 e2 97 be f0 8a 48 be cf 8e 18 3e ee 23 d9 3e
       -0.29665202 -0.1958425 0.14898227 0.42410225
0002d0 b3 39 e5 3e f4 a0 90 3d 60 f1 05 be b5 c7 67 3e
       0.44770584 0.07061949 -0.13080359 0.22634776
0002e0 aa a2 b3 bd c5 6c 2c 3e 51 db 0a be e0 a5 04 be
       -0.0877126 0.16838367 -0.13560225 -0.12953901
0002f0 0f 40 c4 bc 91 a5 a4 be e5 38 9c 3d 3c 61 f9 3e
       -0.023956327 -0.32157567 0.07628039 0.48706996
000300 c8 1d 18 3e db ce f1 3d 50 92 f6 3c 10 af 92 3d
       0.1485511 0.11807033 0.030099064 0.07162297
000310 9a 1e a0 3e d3 39 19 3d 0e 67 51 3d 28 c7 5d bc
       0.31273347 0.03740866 0.05112367 -0.013536252
000320 1b a3 a2 be 4d f0 0b bc 65 83 a7 3e 95 78 49 3e
       -0.31765065 -0.008541179 0.32717434 0.19674905
000330 af fc 10 be 27 46 53 bc 5c 67 51 3c 0f 84 87 3e
       -0.14158891 -0.012895144 0.01278099 0.2646794
000340 50 b4 fa bd 84 d5 6c 3e d3 1f 86 3e 32 c5 84 39
       -0.12241423 0.23128325 0.26196155 0.00025323924
000350 ce 93 6f 3e 7b 9b ad 3e 74 a0 0b 3f 49 a5 f7 3e
       0.23396227 0.33907685 0.5454171 0.4836829
000360 5d 45 97 3e 10 5b a7 3e ca 5c bd 3d c7 85 5b bc
       0.29545107 0.32686663 0.09246214 -0.013398594
000370 b6 f7 f2 3d f7 5d a8 3d b0 35 43 3e 48 82 47 be
       0.11863653 0.08221047 0.19063449 -0.19483292
000380 43 3b 7f 3e ac 75 1f 3f d7 05 28 3f 36 88 fd 3e
       0.2492495 0.6228893 0.6563391 0.49517983
000390 05 d6 73 3e 77 9b df 3d bd 09 eb 3e a6 57 a7 be
       0.2381211 0.109183244 0.45905867 -0.32684058
0003a0 eb b3 6f be 5c 4b 99 bd 52 42 d6 3d 4d e1 10 be
       -0.23408477 -0.07485077 0.10461868 -0.14148445
0003b0 42 6d 39 3d 20 1c 2a 3e 9a 14 da 3c d9 8a eb 3d
       0.045270212 0.16612291 0.026621152 0.115010925
0003c0 27 59 b4 3e 8f dc c3 be 2c 20 7a be 68 f1 ac be
       0.35224268 -0.3825421 -0.24426335 -0.33777928
0003d0 3d 79 33 ba a2 b7 66 3e 85 11 2d 3e 07 d8 09 3f
       -0.0006846374 0.22530988 0.16901214 0.53845257
0003e0 7b 94 05 3f 5e 7a 82 3e 81 f6 1a be ee 8b c5 3e
       0.5217969 0.25483984 -0.15133096 0.3858332
0003f0 92 ad 86 be cb d8 1a be 05 95 7d be 54 66 e4 bd
       -0.263043 -0.15121762 -0.24763878 -0.1115233

fc1.bias f4 [64]
000000 3c 77 8d 3f 53 92 98 3f 37 8a 8d 3f bd a7 92 3f
       1.1052012 1.1919655 1.1057805 1.145744
000010 8c 8b 9c 3f f6 75 95 3f 4f d7 a1 3f d3 46 91 3f
       1.2230086 1.1676624 1.2643832 1.1349739
000020 5e d5 9a 3f cb 98 92 3f c5 86 8d 3f ab 3b 99 3f
       1.2096364 1.1452879 1.1056753 1.1971334
000030 4e 7e 9b 3f ad 29 86 3f bb f3 39 3f 99 30 ac 3f
       1.214792 1.0481468 0.7263753 1.3452331
000040 ab 4b a5 3f 7b a6 92 3f 4f 1f 56 3f 2c 66 a2 3f
       1.2913717 1.1457056 0.83641523 1.268743
000050 01 b7 6d 3f b8 6c a0 3f d1 e3 41 3f c6 68 95 3f
       0.92857367 1.2533178 0.75738245 1.1672599
000060 20 82 a3 3f ff 70 85 3f c4 04 7c 3f ac 6f 89 3f
       1.2774086 1.0425109 0.9844477 1.0737205
000070 d2 76 9f 3f 50 74 9f 3f 85 5f 94 3f e9 33 7b 3f
       1.2458136 1.2457371 1.159165 0.98126084
000080 34 44 9d 3f 25 d6 9a 3f 19 82 9e 3f 0b 62 9b 3f
       1.2286439 1.2096602 1.2383453 1.2139295
000090 ee fe 98 3f 73 30 8c 3f 21 15 9e 3f 6f 57 98 3f
       1.1952798 1.0952286 1.2350198 1.1901683
0000a0 c9 27 8f 3f 23 b9 a2 3f 57 6b 9d 3f 1f 7d 98 3f
       1.1184016 1.2712749 1.2298383 1.1913184
0000b0 aa bb 9c 3f e3 ee 95 3f 6d d7 90 3f ab 47 90 3f
       1.224477 1.1713527 1.1315743 1.1271871
0000c0 2c 8d 9b 3f db bb 98 3f 10 81 92 3f fa f0 9c 3f
       1.2152457 1.1932329 1.1445637 1.226104
0000d0 d0 c6 9c 3f 70 50 9d 3f 29 87 9c 3f f6 50 95 3f
       1.2248173 1.2290173 1.2228748 1.1665332
0000e0 37 18 9c 3f a7 0f 9e 3f d3 67 98 3f 1f 03 a1 3f
       1.219489 1.2348527 1.1906685 1.2579077
0000f0 10 25 9d 3f 0f 5e 96 3f 37 e2 96 3f 84 cd 8e 3f
       1.2276936 1.1747454 1.1787785 1.1156468

fc2.weight f4 [4, 64]
000000 1b dd 15 3f eb 14 09 3f fa 7e 29 3f 61 6c 3a 3f
       0.58540505 0.53547543 0.66209376 0.72821623
000010 8c 9a 3b 3f 25 8d 2e 3f 8b cb 4e 3f 88 a1 62 3f
       0.73282695 0.6818412 0.8077933 0.8852773
000020 ba f9 40 3f e1 4e 58 3f 10 83 0d 3f bb da 40 3f
       0.7538105 0.8449536 0.5527811 0.75333756
000030 b2 d0 4a 3f e7 5d 2f 3f 32 ed 8c 3e 60 90 5a 3f
       0.79224694 0.6850266 0.27524716 0.8537655
000040 00 a9 57 3f b9 20 11 3f 7d 4a dc 3d 33 76 38 3f
       0.8424225 0.56690556 0.10756395 0.7205536
000050 a9 4f 11 3f b1 4e 59 3f 84 1e b2 3e 36 34 41 3f
       0.56762177 0.848857 0.34788907 0.7547029
000060 3a 95 11 3f 02 31 2b 3f cf f9 07 3f 0e bd 1a 3f
       0.56868327 0.66871655 0.5311555 0.60444725
000070 2e 3c 1e 3f 8e e1 4a 3f f3 d6 2f 3f c1 e3 23 3f
       0.61810577 0.7925042 0.6868736 0.640194
000080 ba c2 0d 3f 03 ad 52 3f 19 dc 2a 3f c6 56 24 3f
       0.55375254 0.82295245 0.6674209 0.64194906
000090 23 de 25 3f d1 ef 28 3f 9d d7 52 3f bc 15 2e 3f
       0.6479208 0.6599093 0.8236025 0.68001914
0000a0 48 83 23 3f 02 59 49 3f c6 05 5a 3f ab 50 36 3f
       0.63872194 0.7865144 0.8516506 0.7121684
0000b0 14 88 69 3f e7 d1 41 3f 03 d0 17 3f a1 e4 15 3f
       0.91223264 0.7571091 0.59301776 0.58551985
0000c0 c8 fd 3c 3f 27 9d 47 3f c2 b6 6f 3f ca dc 33 3f
       0.7382474 0.7797417 0.9363824 0.7025877
0000d0 59 86 14 3f 8a 7f 24 3f 12 0f 42 3f f5 58 21 3f
       0.580175 0.6425711 0.75804245 0.6302636
0000e0 41 73 49 3f 70 43 41 3f e5 e3 3b 3f 45 90 3a 3f
       0.7869149 0.75493526 0.73394614 0.7287639
0000f0 a4 5b 3c 3f b1 69 0b 3f 96 6b 2c 3f 91 65 12 3f
       0.7357733 0.5445815 0.67351663 0.5718623
000100 3d 53 30 3f 51 0d 3a 3f 30 07 50 3f c3 fc 13 3f
       0.6887701 0.7267657 0.8126097 0.5780756
000110 d2 50 24 3f f7 51 46 3f 19 8c e7 3e 2c 8b 22 3f
       0.6418582 0.7746882 0.45224074 0.6349361
000120 94 93 45 3f 8e 36 55 3f e7 03 37 3f 53 60 4b 3f
       0.7717831 0.8328637 0.7149033 0.79443854
000130 ad f5 27 3f 9d 04 cc 3e 1a 13 44 3f ca 0b 11 3f
       0.65609246 0.3984727 0.76591647 0.56658614
000140 c6 3f 01 3f 28 5f 4a 3f f3 4a 44 be 8a dd 33 3f
       0.50487936 0.79051447 -0.19169216 0.70259917
000150 36 33 01 3f af ce 4f 3f 98 08 8a 3f 3d 5a 2e 3f
       0.50468767 0.8117475 1.0783873 0.6810644
000160 ef be 34 3f 6e ce 25 3f b4 47 50 3f 44 03 4c 3f
       0.7060384 0.6476811 0.8135941 0.7969248
000170 be 9a 45 3f 6a 90 3a 3f dc 22 32 3f d8 b2 89 3f
       0.7718924 0.7287661 0.6958444 1.0757704
000180 a9 5e 3a 3f b3 2a ce 3e 10 d6 5e 3f cb de 35 3f
       0.7280069 0.40266952 0.87045383 0.7104308
000190 f4 7e 0e 3f 8f 47 08 3f ca 1d 28 3f 58 9f 0e 3f
       0.55662465 0.5323419 0.65670455 0.5571189
0001a0 d9 40 43 3f ca d9 02 3f 28 bb fe 3e 8e 8e 43 3f
       0.76270825 0.5111357 0.49752164 0.76389396
0001b0 71 db 07 3f d4 40 42 3f a2 2c 40 3f a2 6b 66 3f
       0.53069216 0.7588017 0.75068104 0.90007985
0001c0 52 7d ad 3e 45 30 1f 3f 0f c6 11 3f e0 e0 53 3f
       0.33884674 0.6218303 0.5694284 0.82765007
0001d0 9f 89 50 3f cc 71 65 3f 20 ff 2d 3f a6 02 2c 3f
       0.81459993 0.89626765 0.67967415 0.6719154
0001e0 50 59 20 3f d6 e3 46 3f 5d 6e 0c 3f 29 d2 5c 3f
       0.6263628 0.776914 0.548559 0.8625818
0001f0 e1 71 34 3f 55 f5 0f 3f 85 53 48 3f c2 0a 26 3f
       0.70486265 0.5623372 0.7825244 0.64860165
000200 5c 94 23 3f 29 ad 36 3f 9a 5e 2b 3f 3a 33 53 3f
       0.63898253 0.7135797 0.66941226 0.8250004
000210 80 cb 02 3f f4 c6 55 3f 71 2c 2f 3f e1 34 08 3f
       0.51091766 0.83506703 0.6842719 0.53205687
000220 4c 35 33 3f 49 cd bb 3e 1c ab 3f 3f 6e 13 f5 3e
       0.700032 0.36680058 0.7487047 0.47866386
000230 93 50 15 3f 67 7a 6a 3f ca 64 91 3f 44 1e 3a 3f
       0.5832607 0.9159302 1.1358883 0.7270243
000240 d1 3b 71 3f d7 35 0b 3f 06 a9 99 3f 1d 09 3f 3f
       0.942319 0.5437903 1.2004707 0.7462328
000250 93 ae 82 3f 07 98 f9 3e 9e a4 2f 3f 39 f2 37 3f
       1.0209526 0.487488 0.6861056 0.7185398
000260 7e 68 2c 3f 94 29 49 3f 62 49 3c 3f f5 8c 3c 3f
       0.6734694 0.7857907 0.73549473 0.73652583
000270 64 a9 e6 3e e7 f4 59 3f 5b 63 4b 3f 84 59 08 3f
       0.4505111 0.85139316 0.7944848 0.5326159
000280 4e 6c 3f 3f d9 29 4b 3f f1 2c 37 3f 0d 24 12 3f
       0.74774635 0.7936073 0.7155295 0.5708626
000290 c2 d5 32 3f f6 29 59 3f 09 71 10 3f bb ad 3f 3f
       0.6985742 0.8482965 0.5642248 0.74874467
0002a0 30 d0 fa 3e 7d 4a 04 3f 6c 32 3c 3f 2d 7a 52 3f
       0.4898696 0.5167616 0.7351444 0.82217675
0002b0 ce 50 34 3f 16 e9 68 3f 11 d3 7d 3f 6d 2f 12 3f
       0.704358 0.9098066 0.99150187 0.57103616
0002c0 1f ae 7e 3f 73 c0 e5 3e 18 ec e2 3e bd cc 0e 3f
       0.9948444 0.4487339 0.4432075 0.55781156
0002d0 47 7a 0b 3f c2 bf 35 3f 9d c3 50 3f d0 a6 04 3f
       0.54483455 0.70995724 0.8154848 0.51817036
0002e0 b2 f8 1c 3f 73 87 09 3f 29 ec 3c 3f 8b 9f fb 3e
       0.6131698 0.53722304 0.7379785 0.4914516
0002f0 17 21 2c 3f 52 68 f0 3e 3c 62 51 3f 55 28 4d 3f
       0.6723799 0.4695459 0.8179052 0.80139667
000300 6d 01 f0 3e 3c a7 3e 3f 2d cf 32 3f 32 73 37 3f
       0.46876088 0.7447393 0.69847375 0.7166015
000310 e3 88 50 3f be da 16 3f d0 ba 35 3f 63 09 07 3f
       0.8145887 0.58927524 0.7098818 0.527487
000320 a2 c1 44 3f d9 f2 59 3f 22 d2 73 3f f6 b5 10 3f
       0.7685796 0.8513618 0.9524251 0.5652765
000330 fc 23 37 3f b2 cd 66 3f 1a e0 47 3f dc df 23 3f
       0.7153928 0.90157616 0.78076327 0.6401346
000340 b2 89 25 3f 5f 5c 3d 3f 40 2d 8f 3f e5 63 11 3f
       0.6466323 0.7396907 1.1185684 0.5679305
000350 78 b3 5e 3f 58 a1 1e 3f f7 58 4c 3f 43 cb 36 3f
       0.869926 0.6196494 0.7982325 0.714039
000360 39 d0 40 3f 17 dc d5 3e 93 92 c9 3e 5c 75 0a 3f
       0.7531772 0.41769478 0.3936964 0.54085326
000370 1a 24 45 3f fc 2c c1 3e 55 88 49 3f 31 46 09 3f
       0.7700821 0.37729633 0.7872365 0.5362273
000380 00 09 45 3f 93 5d 47 3f 8a bc 19 3f 8f 04 72 3f
       0.7696686 0.7787716 0.6005331 0.94538206
000390 7a f1 05 3f 8b 8b 2e 3f 85 4e 3e 3f 8e 51 17 3f
       0.5232159 0.68181676 0.7433856 0.5910882
0003a0 c8 a5 28 3f 4e c1 5f 3f 56 20 4d 3f 9d 25 c5 3e
       0.6587796 0.87404335 0.80127466 0.3850526
0003b0 f7 f6 37 3f 07 da 3a 3f c5 bd 0a 3f 92 97 3d 3f
       0.71861213 0.72988933 0.54195815 0.740594
0003c0 c2 e3 4a 3f 90 29 33 3f 34 0e 67 3f 51 de f3 3e
       0.7925378 0.69985294 0.9025605 0.4763055
0003d0 40 d7 72 3f 1c 1a 18 3f e9 82 ea 3e 01 29 72 3f
       0.94859695 0.5941484 0.45803002 0.94593817
0003e0 77 65 d7 3e 0f 4d 42 3f 22 05 47 3f bb 96 58 3f
       0.420696 0.7589883 0.7774221 0.84604996
0003f0 5b 44 31 3f 77 aa 94 3f 54 2a 07 3f 50 8e 15 3f
       0.6924493 1.1614522 0.5279896 0.58420277

fc2.bias f4 [4]
000000 0c 0c 31 3f 41 e8 48 3f 86 1a 5b 3f 71 0f 63 3f
       0.6915901 0.7847939 0.85587347 0.88695437
