model.pth (torch, 33683 bytes, 4 tensors)

fc1.weight f4 [64, 121]
000000 75 66 0c be f6 52 86 be 9d d5 a4 be 04 0c 15 be
       -0.1371096 -0.2623517 -0.32194224 -0.14555365
000010 92 b7 9a be 52 7c d9 3e 48 39 bc 3e 2b 8c d1 3e
       -0.30218178 0.4247766 0.36762452 0.40927252
000020 1c 0a 00 3f 09 8a a0 3e d7 40 6e be 93 62 3f 3d
       0.50015426 0.31355312 -0.23266922 0.046724867
000030 76 24 b6 bc 55 ad 99 bc 85 79 ba bd 43 e6 94 bd
       -0.022234183 -0.018759409 -0.09105209 -0.072704814
000040 24 45 2f 3f b2 4e 0d 3f 68 01 6c 3f e7 21 37 be
       0.68464875 0.55198205 0.92189646 -0.17884026
000050 21 5a 54 3d fb ce b0 bd c1 07 90 be 95 ff 1e bd
       0.051843766 -0.086332284 -0.28130916 -0.03881796
000060 39 19 bd be 9e 7a 05 be 0d b5 8f bd 9f e4 5a 3e
       -0.36933306 -0.13035056 -0.070169546 0.21376275
000070 ac 9f ed 3c a6 2e f3 3d c6 41 b1 bd 5f b4 69 3e
       0.029006802 0.11874132 -0.086551234 0.22822712
000080 09 4a 45 bd c0 92 96 be 86 aa 31 be 2b fd bd 3c
       -0.04816631 -0.29408836 -0.17350206 0.023192009
000090 32 0e 8e bd 56 c0 89 be f2 56 cc be e4 17 69 be
       -0.06936301 -0.26904553 -0.39910084 -0.2276302
0000a0 b3 4c 5b 3e b7 32 5f bd a2 6f 60 be 87 db 67 be
       0.21415977 -0.054491725 -0.21917585 -0.22642337
0000b0 1f 68 70 3e 44 fe 35 be 91 08 4c be 33 12 2a be
       0.23477219 -0.17772776 -0.19925143 -0.16608505
0000c0 2a 8b 77 3d 8e 5d 57 be 68 44 de 3b d4 a3 bd bc
       0.06043545 -0.21031782 0.006783057 -0.023149408
0000d0 de fd df bc db b1 6b be 8c 76 c0 be 95 c0 1c bf
       -0.027342733 -0.23017065 -0.37590444 -0.61231357
0000e0 c9 8b 85 be ca fb 87 be a0 03 f0 be 6f 01 6d be
       -0.2608321 -0.26559287 -0.46877766 -0.23145078
0000f0 88 c1 f7 bd 13 d7 8b be 8f 80 8e 3c 71 b9 d1 3d
       -0.1209746 -0.27312526 0.017395286 0.10240448
000100 5b 16 8c 3c 8a 5e 06 bf f3 26 b0 3d 31 6a 1b bd
       0.017100504 -0.52488005 0.08601179 -0.03794307
000110 16 16 09 bf 66 e7 82 be 8f fb 11 be a2 f2 e7 bd
       -0.53549325 -0.25567168 -0.14256118 -0.113255754
000120 0e 06 6e bc 16 dc cc bd da 2e 88 3c 70 c3 b9 bd
       -0.014527811 -0.100029156 0.016623903 -0.0907048
000130 d7 4f a5 3d b9 f1 48 be c9 75 01 3e ce da 8d 39
       0.08071869 -0.1962346 0.12642588 0.00027056638
000140 a0 96 c4 be fd 13 9e be 6f 29 b4 bd 83 df 34 3e
       -0.38396168 -0.30874625 -0.08796965 0.17663388
000150 c8 6f 1c 3e 8e 6f 06 bc 0c 1c 34 3e 4a 8d 24 be
       0.15277016 -0.008205308 0.17588824 -0.16069523
000160 c8 ef 15 3e 98 26 1e 3e d8 48 54 be 34 04 5e 3d
       0.1464225 0.1544441 -0.20730913 0.054203227
000170 6b 83 f6 bd ba ae b9 3d 13 c0 a2 3e 94 a2 42 3e
       -0.12036785 0.090665296 0.31787166 0.19007331
000180 61 a0 83 3e 33 c8 12 3e 10 bf 26 be 29 e7 96 bd
       0.25708297 0.14334182 -0.16283822 -0.07368309
000190 42 80 4a 3c 6b b4 c0 be ec 27 c5 be b5 f3 9c 3d
       0.012359681 -0.37637648 -0.3850702 0.07663671
0001a0 dd 0b 37 3e 3a 7b a4 3e 7a 89 01 3e cb 64 25 3e
       0.17875619 0.32125264 0.126501 0.1615173
0001b0 9c f1 a4 3e ae 0b 19 be 5e 3e 01 3e 7d df 92 bd
       0.32215583 -0.14945862 0.12621447 -0.07171533
0001c0 5e 4a aa bc af ab 37 3e 0f 96 82 be ad b0 79 3e
       -0.020787414 0.17936586 -0.2550511 0.24383803
0001d0 ab 32 83 3e 51 ec 0a 3f 67 61 24 3f 90 dc d2 3e
       0.25624594 0.5426684 0.64211124 0.411839
0001e0 90 e8 17 bf aa f0 88 be 0a 33 64 be 0b 45 0a bd
       -0.5933924 -0.26746112 -0.22285095 -0.03375725
0001f0 92 f7 99 bd 8c 7a 50 bd 20 61 9f 3e b1 16 cd bd
       -0.075179234 -0.05089812 0.31128788 -0.10014094
000200 ac 61 89 3e 62 a1 c2 be 01 b0 da bd 7f 19 2a be
       0.2683233 -0.3801375 -0.10678101 -0.16611288
000210 e0 52 d7 bd fe 0b 51 3d b4 0b 79 be 24 cb 44 3e
       -0.10513854 0.051036827 -0.2432087 0.19218117
000220 01 49 26 ba dc 21 97 3e 6b 8a b4 3e 89 04 02 3f
       -0.0006343276 0.2951802 0.35261855 0.5078817
000230 2b 7a bd bd d4 f4 14 3d a5 6e ea 3d c2 69 c6 be
       -0.09251817 0.0363663 0.11446885 -0.38752562
000240 38 e1 70 be 68 1f d3 be 29 5f 9a 3d 8d c0 85 bd
       -0.23523414 -0.412349 0.075376816 -0.06530867
000250 34 0f 9d bd 7b 15 56 3c 7d d0 ed bc 0c 34 07 be
       -0.076689154 0.013066645 -0.029030079 -0.13203448
000260 a6 4d 13 3b 55 8c fa 3d db 97 3c be ba 66 71 be
       0.0022476702 0.122337975 -0.18417303 -0.23574343
000270 8f 4e 70 3c a1 3d 16 be 1f 85 10 be 85 a4 41 be
       0.014667167 -0.14671947 -0.14113282 -0.18910415
000280 b9 43 f1 bd 59 2e a9 3c b7 dd b4 bd 87 51 e1 bd
       -0.11780495 0.020651983 -0.08831351 -0.11001878
000290 40 23 39 be fc ea 27 be 30 f6 f2 be 88 c5 1b be
       -0.18079853 -0.16398233 -0.4745345 -0.15212071
0002a0 c2 96 b1 3d 4d 62 65 3e 40 19 20 3e 72 d2 41 bd
       0.08671333 0.2240078 0.15634632 -0.047319837
0002b0 2a 41 29 bd ea d9 35 bd c1 fa 57 3d f4 ec a8 be
       -0.04132191 -0.044397272 0.052729372 -0.3299328
0002c0 71 e5 bb be 11 5e b2 be e7 f8 12 3e 8e be b7 3e
       -0.36698487 -0.34837392 0.14352761 0.3588757
0002d0 2f 27 d5 3e e6 f5 6c bb 74 34 99 bd bf 45 39 3e
       0.41631457 -0.003615731 -0.07480708 0.18093012
0002e0 8c 72 5b be 9f f7 15 3e 71 f4 12 bf 07 49 38 be
       -0.21430415 0.14645241 -0.5740424 -0.17996608
0002f0 a9 5b a0 bd 83 9e fb be 94 c6 99 bd 19 01 52 3e
       -0.07829983 -0.49144372 -0.07508579 0.20508231
000300 c6 ae 2f bd 9b 50 43 3e 00 a4 47 3e 88 48 e1 3d
       -0.042891286 0.19073717 0.19496155 0.11000162
000310 8e a9 86 3d 7d b6 4d bc 1a 6f 37 be 0c c4 c1 bd
       0.06575309 -0.012555716 -0.17913476 -0.09461221
000320 60 60 03 bf aa 06 af be 10 63 7b 3e cc 72 33 bc
       -0.5131893 -0.34184772 0.24549508 -0.010952663
000330 33 48 a0 bc 05 a2 bc 3c 23 32 fa 3d 95 91 4e 3e
       -0.019565677 0.023026476 0.12216594 0.20172723
000340 ef 8c 97 be 37 ff d2 bc 21 ac e9 bd a6 d1 4d be
       -0.2959971 -0.025756462 -0.11409784 -0.20099506
000350 28 7b 6a 3e 83 3b 85 3e d2 fe 07 3e 0a 20 bc 3e
       0.22898543 0.26021966 0.132808 0.36743194
000360 db 20 5e 3e e6 b1 5e 3e ee 1a 4b bd 87 c6 9c be
       0.21692221 0.2174755 -0.04958623 -0.30620214
000370 0d c7 43 be 49 e7 3e be 67 a5 fd bd 35 79 c3 be
       -0.191189 -0.18642916 -0.123850636 -0.3817841
000380 0e 3e 07 3e f4 e2 3f 3e 0d 12 ba 3e 52 dd 80 3e
       0.13207266 0.1873892 0.36341897 0.25168854
000390 6c 6e 64 3d 74 88 96 3e dd 1c 50 be ac 14 c9 be
       0.05576937 0.2940098 -0.2032351 -0.39273584
0003a0 52 0a 57 bd 5c 42 f6 bd c1 ab 08 be 99 e0 a2 be
       -0.052500077 -0.12024376 -0.13346769 -0.3181198
0003b0 e6 9e 2f 3e b8 72 5e be 13 68 ea bc 43 d2 d9 bd
       0.17150459 -0.21723449 -0.02861408 -0.10635807
0003c0 69 a8 a0 3e 39 9b b9 be f4 e4 10 be a3 0b 8a be
       0.31378487 -0.36251238 -0.14149839 -0.26962003
0003d0 a5 33 0f be 4a f0 0e be 21 5f 80 be 4c 04 84 3e
       -0.13984545 -0.1395885 -0.25072578 0.25784528
0003e0 ec e2 0f 3d 8b bf 01 3e 7b e2 8f be 89 99 f8 3d
       0.03512852 0.12670724 -0.28102478 0.121386595
0003f0 35 9c 24 be 57 60 20 3e c8 ac a5 3d 22 cf de 3a
       -0.16075213 0.1566175 0.08089596 0.0016998986

fc1.bias f4 [64]
000000 bc b9 f3 3f 04 d1 02 40 36 5a fd 3f 2a 94 01 40
       1.9041057 2.0440073 1.9793155 2.0246682
000010 73 b2 0a 40 cf d0 04 40 e6 83 0e 40 34 cf 02 40
       2.1671417 2.0752447 2.2268004 2.0438967
000020 15 38 06 40 5b f0 06 40 cf 6e e8 3f 3e 91 09 40
       2.097173 2.1084201 1.8158816 2.1494899
000030 7f ab 0a 40 f7 d4 f7 3f c8 f5 e4 3f ab 19 15 40
       2.1667173 1.9361867 1.7887506 2.3296916
000040 b6 7b 0f 40 9f 4c 02 40 4f 81 cd 3f 12 30 0c 40
       2.2419257 2.0359266 1.6055087 2.190434
000050 93 20 de 3f 8b 50 0e 40 a6 63 e0 3f 68 fe 04 40
       1.7353691 2.223666 1.753041 2.0780277
000060 91 a2 0c 40 92 52 ec 3f 2b f5 d5 3f 9a a1 e7 3f
       2.1974223 1.8462698 1.6715444 1.8096192
000070 47 53 0b 40 0c 50 0c 40 3c 0e 05 40 b8 89 d3 3f
       2.1769578 2.1923857 2.0789938 1.6526403
000080 f2 3b 07 40 b2 35 0a 40 3d b0 08 40 46 f4 07 40
       2.1130338 2.1595273 2.1357567 2.1242843
000090 91 c8 08 40 f1 5a 01 40 2e b9 0d 40 0e fc 05 40
       2.1372416 2.0211756 2.2144275 2.0935092
0000a0 1a 7e fe 3f 89 15 0f 40 77 be 0a 40 1c 8c 01 40
       1.9882233 2.2356894 2.167875 2.0241766
0000b0 62 6f 0e 40 22 a5 05 40 9b 7f fd 3f 22 3a ff 3f
       2.2255483 2.088204 1.9804567 1.9939616
0000c0 51 f9 08 40 d6 f2 09 40 29 d0 03 40 3a ab 0b 40
       2.140217 2.1554465 2.05958 2.1823258
0000d0 5a 7f 07 40 3d e7 06 40 9c e4 08 40 85 24 07 40
       2.117148 2.1078637 2.1389532 2.111604
0000e0 37 91 0c 40 cf 02 0c 40 5b 2d 07 40 af f9 09 40
       2.1963632 2.1876714 2.1121433 2.1558645
0000f0 09 67 09 40 99 da 02 40 8d ab 05 40 99 ba fb 3f
       2.1469138 2.0445921 2.0885956 1.966632

fc2.weight f4 [4, 64]
000000 58 2d 7d 3f 82 ef 4c 3f 70 0b 75 3f e5 2c 8e 3f
       0.98897314 0.8005296 0.9572058 1.1107451
000010 c3 e5 55 3f 48 ed 85 3f 5e 2a 8a 3f a4 41 a0 3f
       0.83553714 1.0463037 1.079418 1.2520032
000020 d8 25 80 3f 2f 1e 98 3f ab a0 69 3f e8 83 8f 3f
       1.0011549 1.1884211 0.91260785 1.121213
000030 39 dd 88 3f 25 0a 6a 3f 41 19 ae 3f 57 88 a6 3f
       1.0692512 0.9142173 1.3601457 1.3010358
000040 50 d6 a0 3f b1 44 35 3f 35 82 b1 3e 21 bd 8e 3f
       1.2565403 0.7080794 0.34669653 1.1151468
000050 dd db a7 3f 9e a5 a0 3f 2f 14 7f 3f 06 17 ba 3f
       1.3113972 1.2550542 0.9964017 1.4538276
000060 e8 3e 5d 3f 98 4f 82 3f 72 1e 65 3f da 2c 84 3f
       0.8642411 1.018054 0.8949958 1.0326188
000070 bc 76 4d 3f d8 4a b1 3f 3b 04 63 3f 0b 3b 8a 3f
       0.802593 1.3850965 0.8867833 1.0799268
000080 9b 64 52 3f 75 56 8f 3f b6 bb 8e 3f c1 e8 62 3f
       0.8218476 1.119826 1.1151035 0.88636404
000090 26 a0 81 3f 7c 79 9d 3f 60 de 8e 3f c0 b2 82 3f
       1.0126998 1.2302699 1.1161613 1.02108
0000a0 6f fe 4b 3f 28 8c 79 3f 94 1f 9d 3f aa 31 ab 3f
       0.7968511 0.97479486 1.2275262 1.3374531
0000b0 be c9 a4 3f d7 9e a3 3f d7 84 aa 3f cb ec 4a 3f
       1.2874067 1.2782849 1.332179 0.7926757
0000c0 66 47 8a 3f 77 f1 91 3f b1 de 8c 3f 66 c1 8a 3f
       1.0803039 1.1401814 1.100546 1.084027
0000d0 1a 0c 49 3f 7d f5 88 3f a8 b0 94 3f 24 42 43 3f
       0.7853409 1.0699917 1.1616411 0.762728
0000e0 b5 27 a9 3f 23 5b 83 3f c5 d5 7d 3f 0f b6 6a 3f
       1.3215243 1.0262188 0.9915431 0.9168405
0000f0 12 d9 62 3f 45 fa 19 3f ed 3c 95 3f ef 5e 73 3f
       0.88612473 0.60147506 1.1659218 0.9506673
000100 30 69 86 3f f9 a5 8b 3f fc d7 86 3f 1d b1 82 3f
       1.0500851 1.0910026 1.0534663 1.0210301
000110 b7 1e 7a 3f 74 86 8e 3f 92 54 5d 3f 60 76 55 3f
       0.9770312 1.1134782 0.8645717 0.8338375
000120 31 ea 8c 3f f3 71 93 3f 05 8e 93 3f 90 e2 87 3f
       1.100897 1.151915 1.1527716 1.0616016
000130 97 ef 6b 3f e5 46 72 3f c9 a6 db 3f 57 50 67 3f
       0.9216246 0.94639426 1.7160274 0.90356964
000140 56 70 64 3f 2d d5 8e 3f c1 c3 49 3f 71 78 7c 3f
       0.8923391 1.1158806 0.7881432 0.9862128
000150 df 7f b7 3f bc 06 88 3f eb f1 fc 3f 63 24 8c 3f
       1.4335898 1.0627055 1.9761328 1.0948604
000160 21 43 86 3f 63 6c 72 3f 03 ed 92 3f 70 bb 7c 3f
       1.0489236 0.94696635 1.147858 0.98723507
000170 e6 22 85 3f 4c 62 7b 3f 64 b7 98 3f e1 c7 c5 3f
       1.0401275 0.98196864 1.1930966 1.5451623
000180 3b 3c 90 3f 22 61 4d 3f 2b 8e 9b 3f fa 4f 91 3f
       1.1268381 0.8022634 1.2152761 1.1352532
000190 04 aa 66 3f de e9 87 3f d3 a5 76 3f e1 2a 76 3f
       0.90103173 1.0618246 0.9634678 0.9615918
0001a0 9e b1 82 3f 46 8d 58 3f a7 04 56 3f 10 67 89 3f
       1.0210454 0.84590566 0.8360085 1.0734577
0001b0 74 40 6a 3f 4e 86 ad 3f 4c e0 a6 3f 59 71 9f 3f
       0.915046 1.3556612 1.30372 1.2456466
0001c0 5d fd 38 3f 3e 4c 77 3f 92 2c 86 3f 39 09 8b 3f
       0.722616 0.9660071 1.0482352 1.086219
0001d0 3c 03 aa 3f f1 0d 9f 3f 50 e4 88 3f 59 f7 83 3f
       1.3282237 1.242613 1.0694675 1.030986
0001e0 df df 5e 3f b2 63 88 3f 24 31 60 3f 9f 3c 95 3f
       0.8706035 1.0655425 0.8757498 1.1659125
0001f0 4f b9 88 3f 8f 18 82 3f 3b 0b 8d 3f 0e 20 58 3f
       1.0681552 1.0163745 1.1019052 0.8442391
000200 52 85 79 3f 5c 0f 88 3f 18 cc 87 3f 8e 0f 9c 3f
       0.97469056 1.0629687 1.060916 1.2192247
000210 44 4e 78 3f 3f 3e 91 3f 08 51 89 3f e5 01 67 3f
       0.96994424 1.1347121 1.0727854 0.90237266
000220 ea 16 81 3f 51 28 5f 3f f8 55 92 3f d6 55 5c 3f
       1.0085118 0.8717089 1.1432486 0.86068475
000230 e8 2e 81 3f fe 01 a5 3f 8d d4 ab 3f dc e0 81 3f
       1.009244 1.2891233 1.342424 1.0146747
000240 0f cf 9d 3f 19 98 7f 3f d7 42 03 40 1c ca 88 3f
       1.2328814 0.9984146 2.0509546 1.0686679
000250 6d fd 9a 3f c7 7c 62 3f 6a f4 91 3f 33 04 7a 3f
       1.210859 0.88471645 1.1402714 0.9766266
000260 74 9e 81 3f 4b 40 84 3f 2f 81 7f 3f 1d ad 99 3f
       1.0126481 1.0332121 0.99806494 1.2005955
000270 c8 d3 5f 3f 0f aa 8a 3f a1 83 a2 3f f5 03 25 3f
       0.8743253 1.0833148 1.269642 0.6445916
000280 ff 91 98 3f 54 40 a1 3f ee a7 65 3f b3 a0 84 3f
       1.1919554 1.2597756 0.89709365 1.0361542
000290 d0 57 86 3f f8 b3 69 3f 6e f1 5d 3f e8 1a 89 3f
       1.0495548 0.91290236 0.8669652 1.0711336
0002a0 28 f6 61 3f 5a 2e 87 3f a0 67 98 3f 5c 98 89 3f
       0.8826623 1.056102 1.1906624 1.0749621
0002b0 0e da 85 3f 49 4a 8b 3f 0d c3 88 3f e6 64 86 3f
       1.045717 1.0882045 1.0684525 1.0499542
0002c0 63 9f a9 3f 6b 49 50 3f ff a0 6e 3f 81 cf 6c 3f
       1.3251766 0.81362027 0.9321441 0.92504126
0002d0 5f 2a 88 3f 04 5e 70 3f 3d b8 91 3f 7b 44 81 3f
       1.0637931 0.93893456 1.138435 1.0099024
0002e0 08 cb 74 3f c3 25 72 3f 7b 50 8d 3f c3 2b 70 3f
       0.956223 0.9458887 1.1040186 0.93816775
0002f0 af 85 7f 3f 20 d3 80 3f 1b 0a 84 3f 12 65 88 3f
       0.9981336 1.006443 1.0315584 1.0655844
000300 38 b8 6a 3f 3c c0 7b 3f 8e 25 85 3f 07 83 61 3f
       0.91687346 0.983402 1.0402086 0.88090557
000310 bd fa 93 3f b5 13 66 3f 65 89 89 3f a4 5a 51 3f
       1.1560894 0.8987382 1.0745054 0.8177893
000320 a0 e3 8f 3f 27 28 93 3f 09 3f b7 3f 7e 46 64 3f
       1.1241341 1.1496629 1.4316112 0.8917006
000330 50 76 81 3f 05 34 9c 3f 4e 69 e4 3f 63 5b 7d 3f
       1.0114231 1.2203375 1.7844636 0.9896757
000340 39 98 6c 3f dd 1d 8b 3f 93 c8 be 3f 82 2a 67 3f
       0.92419773 1.0868489 1.490496 0.90299237
000350 7a 4c a5 3f a7 ef 82 3f d0 59 f1 3f d4 df 8c 3f
       1.2913964 1.0229386 1.8855534 1.1005807
000360 ca b7 83 3f 03 17 46 3f 03 59 5f 3f 7a 24 67 3f
       1.0290463 0.77378863 0.87245196 0.90290034
000370 28 cd 90 3f 5d 23 36 3f c1 ad 87 3f ba 4f 7e 3f
       1.1312609 0.7114771 1.05999 0.99340403
000380 e1 a0 7e 3f cb 1c 81 3f 15 97 7a 3f 4c 7e 98 3f
       0.9946423 1.0086912 0.9788678 1.1913543
000390 e7 2c 5c 3f ce 30 71 3f ca 21 8a 3f 63 0c 68 3f
       0.86006016 0.94215095 1.0791562 0.906439
0003a0 bb d0 80 3f 3d ac 91 3f d1 ec 7a 3f 3a fd 4a 3f
       1.00637 1.1380688 0.98017603 0.79292643
0003b0 ab 52 81 3f 67 0b a5 3f b0 f7 6c 3f 24 ae 80 3f
       1.0103353 1.2894105 0.9256544 1.0053144
0003c0 cd cf 7e 3f cd da 84 3f f7 45 a3 3f 32 bc 67 3f
       0.9953583 1.0379273 1.2755727 0.9052154
0003d0 d3 6a 99 3f d2 7c 80 3f 0d ac 67 3f 92 88 9b 3f
       1.1985725 1.0038092 0.90496904 1.2151053
0003e0 1d 08 46 3f 23 f1 89 3f a2 e1 86 3f ad 6b 96 3f
       0.7735613 1.0776714 1.0537608 1.175161
0003f0 c7 46 92 3f b6 ff c3 3f db bd 6e 3f 99 9c 66 3f
       1.142785 1.5312412 0.93258446 0.900827

fc2.bias f4 [4]
000000 7e 59 b8 3f 3b 37 b8 3f 47 a8 be 3f 50 c0 c9 3f
       1.4402311 1.4391855 1.4895104 1.5761814
