model.pth (torch, 33683 bytes, 4 tensors)

fc1.weight f4 [64, 121]
0	0xbe6d1a84	-0.23154646
1	0xbec85ccf	-0.39133307
2	0xbef7e1c5	-0.48414436
3	0xbe9ab269	-0.3021424
4	0xbece684d	-0.4031395
5	0x3ea72760	0.32647228
6	0x3e402d9e	0.18767402
7	0x3e626531	0.22108914
8	0x3f2e63dc	0.68121123
9	0x3e8b5bc9	0.27218464
10	0xbb11317d	-0.0022154741
11	0xbe447a02	-0.19187167
12	0xbe9bdf9c	-0.30444038
13	0xbe58cdfa	-0.21172324
14	0xbedaf32b	-0.42763647
15	0xbe839f53	-0.25707492
16	0x3ed0b02c	0.40759408
17	0x3ee62157	0.4494731
18	0x3f66ef3c	0.9020879
19	0xbe5497bd	-0.20761009
20	0x3d28635e	0.04111039
21	0xbd251220	-0.04030049
22	0xbe82ab71	-0.25521424
23	0xbe0dc190	-0.1384337
24	0xbebad8fa	-0.36493665
25	0xbe9e5c46	-0.30929774
26	0xbebf6a04	-0.3738557
27	0x3e0e4010	0.13891625
28	0xbe0d3b4b	-0.1379215
29	0x3dad6ca3	0.084679864
30	0x3da5824a	0.08081491
31	0x3e35f371	0.17768647
32	0xbdd73a9c	-0.10509226
33	0xbe6deb66	-0.23234329
34	0xbe40a4c2	-0.1881285
35	0xbe5644d2	-0.2092469
36	0x3bbadef5	0.005702848
37	0xbe05f0e1	-0.1308017
38	0xbecbf55a	-0.39835626
39	0xbdd66d05	-0.104700126
40	0x3e8c65ec	0.2742151
41	0x3d92548a	0.07145031
42	0xbe9f5a2d	-0.31123486
43	0xbd11eb7e	-0.035624973
44	0x3e5e56bf	0.21712779
45	0xbebe570a	-0.3717578
46	0xbe681826	-0.22665462
47	0xbcc82745	-0.024432788
48	0xbe40ecac	-0.18840283
49	0xbe65d073	-0.22442798
50	0xbdb259e1	-0.08708549
51	0x3da72453	0.08161225
52	0x3d844ab0	0.06459558
53	0xbeb6c802	-0.3569947
54	0xbe4ef435	-0.20210345
55	0xbf1caec4	-0.6120417
56	0xbe5f64fc	-0.21815866
57	0xbe042f0f	-0.12908576
58	0xbeb5b5f5	-0.35490385
59	0xbe330a92	-0.17484501
60	0xbdd64a89	-0.10463435
61	0xbede39cf	-0.4340348
62	0xbe3b41db	-0.1828684
63	0x3e745b1b	0.23862879
64	0xbe87e944	-0.26545155
65	0xbf197894	-0.5994961
66	0x3e6f6d00	0.23381424
67	0x3e348f74	0.17632848
68	0xbecea54c	-0.40360487
69	0xbe52a3f6	-0.20570359
70	0xbe124deb	-0.14287536
71	0xbe92b5c0	-0.2865429
72	0xbe1a3b47	-0.15061675
73	0xbec22779	-0.3792074
74	0xbe338c09	-0.17533888
75	0xbed5f000	-0.41784668
76	0x3cbfca6d	0.023411954
77	0xbca3e8a0	-0.020008385
78	0x3ea2fe66	0.31834716
79	0x3d2462a3	0.04013313
80	0xbea8b699	-0.3295181
81	0xbedc5c38	-0.43039107
82	0xbe3e6e2f	-0.18596719
83	0xbe838ecf	-0.25694892
84	0xbd31bca8	-0.043392807
85	0xbe66d5b0	-0.22542453
86	0xbc6efb7b	-0.014586325
87	0xbe1097fc	-0.14120477
88	0x3e13c237	0.14429556
89	0x3f023fbe	0.5087851
90	0xbedf5c21	-0.43624976
91	0x3cb185ac	0.021670185
92	0xbe033b22	-0.12815526
93	0xbd0ba770	-0.034095228
94	0x3e7e07eb	0.24807708
95	0xbdd0c7d2	-0.10194363
96	0x3c2977e7	0.010343528
97	0xbe81d61d	-0.25358668
98	0xbc4068e1	-0.011743755
99	0xbc4c87b4	-0.012483526
100	0xbe4efae0	-0.20212889
101	0xbecf79d5	-0.40522638
102	0xbee2ab93	-0.44271526
103	0x3d93873f	0.072035305
104	0x3e1788e8	0.1479832
105	0x3d9fd726	0.07804708
106	0xbe30eee9	-0.17278637
107	0x3cc8dfb6	0.024520736
108	0x3d23bff8	0.039977998
109	0xbd6193e6	-0.055072688
110	0x3d87ddf7	0.06634133
111	0xbeeb659e	-0.45975965
112	0x3c13812b	0.009002964
113	0x3d41cf5a	0.047316886
114	0xbefceca4	-0.49399292
115	0xbcd49d06	-0.02595378
116	0x3deabc16	0.11461656
117	0x3e94e8e7	0.2908394
118	0x3ed0d5e3	0.40788183
119	0x3dd2c686	0.102917716
120	0xbed13a99	-0.4086502
121	0xbee33520	-0.4437647
122	0xbeba589c	-0.3639573
123	0xbe917807	-0.28411886
124	0xbda6db70	-0.08147323
125	0xbcecdbde	-0.028913435
126	0x3df4f032	0.11959876
127	0xbeba618e	-0.36402553
128	0x3d63b0f9	0.055588696
129	0xbeafd9ff	-0.34346005
130	0xbe524d22	-0.20537236
131	0xbe338100	-0.17529678
132	0xbeb0e384	-0.3454858
133	0xbe2ba119	-0.16760673
134	0xbe809d0f	-0.25119826
135	0x3de971d4	0.11398664
136	0xbd910bae	-0.07082306
137	0x3e9ad9e8	0.30244374
138	0x3ebdf154	0.3709818
139	0x3ee0d85c	0.4391507
140	0xbda2e52e	-0.07953869
141	0xbd0df502	-0.034657486
142	0x3d644fff	0.055740353
143	0xbec4980f	-0.38397262
144	0xbec061bf	-0.37574574
145	0xbeb63f7d	-0.35595313
146	0x3dd1c5b4	0.10242787
147	0xbda762c4	-0.08173135
148	0xbcce62b8	-0.025193557
149	0x3d813bc9	0.06310231
150	0xbd0d49a7	-0.03449407
151	0xbddacd5e	-0.10683702
152	0x3c84f202	0.01622868
153	0xbdfe707a	-0.12423797
154	0xbd5eddaa	-0.054410614
155	0xbe2be138	-0.16785133
156	0xbe5644b1	-0.20924641
157	0xbce39b49	-0.027784007
158	0xbe83ab5a	-0.25716668
159	0xbe5246d3	-0.2053483
160	0xbbfd0da2	-0.0077225724
161	0xbe0ce787	-0.13760196
162	0xbced5f94	-0.02897624
163	0xbe49b049	-0.19696154
164	0xbb160816	-0.0022893003
165	0xbdfedcf5	-0.12444488
166	0xbee8291f	-0.45343873
167	0xbe2bd2f8	-0.16779697
168	0x3e6e9b9e	0.23301551
169	0xbd7eb37c	-0.06218289
170	0x3e446175	0.19177802
171	0xbe1b22bd	-0.1514997
172	0x3cc0c4a8	0.023531273
173	0x3d30035d	0.042971957
174	0x3c9904a5	0.018678972
175	0xbda58eee	-0.08083902
176	0xbe912fd7	-0.2835681
177	0xbe9f1969	-0.31074074
178	0x3e9b0edb	0.3028477
179	0x3ef3a639	0.47587755
180	0x3ed3a643	0.41337785
181	0xbe2d5fb3	-0.16931038
182	0xbe1ffbe7	-0.15623437
183	0x3e48db9d	0.19615026
184	0xbea494b3	-0.32144699
185	0xbcf136cd	-0.029445076
186	0xbf054b48	-0.52067995
187	0xbe38eb22	-0.18058446
188	0xbdb42638	-0.08796352
189	0xbed4e997	-0.41584465
190	0xbd979310	-0.07401097
191	0x3e9c761b	0.30558857
192	0xbd9e8d34	-0.07741776
193	0x3cdb01b5	0.026734212
194	0x3d14515b	0.0362104
195	0xbe143d30	-0.14476466
196	0xbe9241cd	-0.28565827
197	0xbdaac701	-0.08338738
198	0xbe10b878	-0.14132869
199	0xbd56b57d	-0.052419174
200	0xbf020a72	-0.5079719
201	0xbe90c776	-0.28277177
202	0x3e117ab9	0.14206971
203	0x3d6b2309	0.05740646
204	0xbe93da1c	-0.28877342
205	0xbe52c290	-0.20582032
206	0xbdf22e2f	-0.11825215
207	0xbe384157	-0.17993675
208	0xbe936e3b	-0.28795037
209	0xbe4597ec	-0.19296235
210	0xbe6a52d1	-0.22883154
211	0xbe8e802b	-0.2783216
212	0x3df02037	0.117248945
213	0x3e174235	0.1477135
214	0xbda1c7c6	-0.07899432
215	0x3de0328c	0.10947141
216	0xbd036f1f	-0.032088395
217	0xbdbe71dc	-0.09299061
218	0xbec9b3a1	-0.39394858
219	0xbe8e9c63	-0.2785369
220	0xbe8575ee	-0.26066536
221	0xbebec13d	-0.37256804
222	0xbdb13cb3	-0.086541556
223	0xbec466e1	-0.3835974
224	0x3c84ce46	0.01621164
225	0xbd8bede2	-0.06832482
226	0x3e12c67f	0.14333533
227	0xbd9e3010	-0.07724011
228	0xbe173ac9	-0.14768519
229	0xbd739129	-0.059464607
230	0xbe314475	-0.1731127
231	0xbf033763	-0.5125639
232	0xbe087ebd	-0.13329597
233	0xbd8602cf	-0.065435044
234	0xbee89758	-0.45427966
235	0xbeedddda	-0.46458322
236	0xbd9f7665	-0.07786254
237	0xbecb38ae	-0.3969168
238	0xbe4434e5	-0.19160803
239	0xbec5d19e	-0.38636488
240	0x3b950c08	0.0045485534
241	0xbeb55ca9	-0.35422257
242	0xbe6704d0	-0.2256043
243	0xbed39953	-0.41327915
244	0xbe769ddf	-0.2408366
245	0xbe4b776d	-0.19869776
246	0xbe990f51	-0.29894498
247	0x3dcf5d4a	0.10125215
248	0xbde5f5e2	-0.11228539
249	0xbdb86117	-0.090028934
250	0xbea55611	-0.32292226
251	0xbcccc2a2	-0.024995152
252	0xbe336d17	-0.17522083
253	0xbce1ee49	-0.027579444
254	0xbdf6a651	-0.12043441
255	0xbe24eddc	-0.16106361

fc1.bias f4 [64]
0	0x3fd08aeb	1.6292394
1	0x3fef46b0	1.8693447
2	0x3fe979db	1.8240312
3	0x3fed1ea5	1.8524977
4	0x3ffdf55a	1.98405
5	0x3ff4b165	1.9116637
6	0x40043941	2.0659945
7	0x3fee1be8	1.8602266
8	0x3ff6bccd	1.9276367
9	0x3ff6f4c2	1.9293444
10	0x3fe506c1	1.7892686
11	0x3ffbefb7	1.968253
12	0x3ffddef8	1.983367
13	0x3feb606e	1.8388803
14	0x3fea3e52	1.8300269
15	0x4009d662	2.15371
16	0x40050582	2.0784612
17	0x3ff4095a	1.9065354
18	0x3fb3e922	1.4055521
19	0x400283ee	2.0393023
20	0x3fc8d8f7	1.5691212
21	0x4001da3d	2.0289452
22	0x3fe25594	1.7682366
23	0x3ff7195f	1.9304618
24	0x4002a648	2.041399
25	0x3fc841b5	1.5645052
26	0x3fb35d6a	1.4012883
27	0x3fbcb301	1.4742128
28	0x4001e0b4	2.0293398
29	0x3ffeaa87	1.9895791
30	0x3ff6ffb2	1.9296782
31	0x3fbda6a2	1.4816477
32	0x3ffc61c7	1.9717339
33	0x3fff159d	1.9928471
34	0x3ffc1717	1.9694546
35	0x3ffb7359	1.9644576
36	0x3ff65522	1.924473
37	0x3ff7c88d	1.9358078
38	0x4002ba9b	2.0426395
39	0x3ff76299	1.9326965
40	0x3fe5e554	1.796061
41	0x400414fc	2.0637808
42	0x40002e64	2.0028315
43	0x3fe586c4	1.7931752
44	0x40030b00	2.0475464
45	0x3ff64d4d	1.924234
46	0x3feef659	1.8668929
47	0x3feaf2d2	1.8355353
48	0x3ffb5e12	1.9638083
49	0x3ffa5d57	1.9559735
50	0x3fefd543	1.8736957
51	0x3fffd2d1	1.9986211
52	0x3ff9af0b	1.9506544
53	0x3ff5a6d3	1.9191536
54	0x3ffcc5af	1.9747828
55	0x3fff21bc	1.993217
56	0x400054c5	2.005174
57	0x3ffee61c	1.9913974
58	0x3ff87fc4	1.9413991
59	0x3ffdee68	1.9838381
60	0x3ffcd73f	1.9753188
61	0x3ff64d86	1.9242408
62	0x3ffb2f05	1.9623724
63	0x3feab07d	1.833511

fc2.weight f4 [4, 64]
0	0x3f64520d	0.891877
1	0x3f648beb	0.89276
2	0x3f6c6cf8	0.92353773
3	0x3f841341	1.0318376
4	0x3f4045f6	0.7510675
5	0x3f6b2e2c	0.9186733
6	0x3f86a165	1.0518004
7	0x3f8a24b8	1.0792456
8	0x3f7f36d5	0.9969304
9	0x3f940d94	1.1566644
10	0x3f6b1b62	0.9183866
11	0x3f7a9118	0.97877645
12	0x3f70db26	0.94084394
13	0x3f7a2d4f	0.97725385
14	0x3faa27bc	1.3293376
15	0x3f90a54d	1.1300446
16	0x3f8a0440	1.0782547
17	0x3f4040a5	0.7509864
18	0x3e931024	0.28723252
19	0x3f6baf5e	0.92064464
20	0x3fa82095	1.3134943
21	0x3f8daa91	1.1067678
22	0x3f81ac93	1.013079
23	0x3fb1a0c9	1.3877193
24	0x3f5e1c5d	0.8676203
25	0x3f2db92a	0.6786066
26	0x3f30954b	0.68977803
27	0x3f84d842	1.0378497
28	0x3f445aac	0.76700854
29	0x3f92ee47	1.1478966
30	0x3f35bac5	0.7098811
31	0x3fa1c92b	1.2639517
32	0x3f444abe	0.7667655
33	0x3f73ba20	0.9520588
34	0x3f69cb8e	0.91326225
35	0x3f617514	0.8806927
36	0x3f44280b	0.766236
37	0x3fb67a07	1.425599
38	0x3f84d285	1.0376745
39	0x3f5d165e	0.86362255
40	0x3f209abe	0.6273612
41	0x3f7a8b38	0.9786868
42	0x3f8a7f39	1.0820075
43	0x3f82b2c2	1.0210803
44	0x3f98cf3e	1.1938245
45	0x3f9e89a1	1.2385751
46	0x3fa299da	1.2703202
47	0x3f4eae03	0.8073427
48	0x3f84980f	1.0358905
49	0x3f724c9f	0.94648165
50	0x3f8c8adb	1.0979875
51	0x3f7d9220	0.99051094
52	0x3f52b218	0.82303
53	0x3f6549eb	0.89565915
54	0x3f6b64e3	0.91950816
55	0x3f41e19e	0.7573489
56	0x3f90f2e3	1.1324123
57	0x3f6bad6a	0.92061484
58	0x3f71373c	0.94224906
59	0x3f6819a1	0.90664107
60	0x3f63fe28	0.89059687
61	0x3f3d8584	0.74031854
62	0x3f71f229	0.9451013
63	0x3f731b4c	0.94963527
64	0x3f584e48	0.8449445
65	0x3f694052	0.9111377
66	0x3f5c1a7a	0.859779
67	0x3f6fb667	0.936377
68	0x3f60f332	0.87871087
69	0x3f6d9775	0.9280923
70	0x3f568de2	0.83810246
71	0x3f1e9fd8	0.6196265
72	0x3f8a87b5	1.0822664
73	0x3f7ef77c	0.9959638
74	0x3f92a7cf	1.1457461
75	0x3f60e8a7	0.87855
76	0x3f4de80f	0.8043222
77	0x3f8c008a	1.0937665
78	0x3faefc84	1.3670812
79	0x3f5910a6	0.8479103
80	0x3f4f9304	0.81083703
81	0x3f757c08	0.9589238
82	0x3f8af6ae	1.0856531
83	0x3f5a8ee7	0.853743
84	0x3fa5b6a7	1.2946366
85	0x3f67176f	0.9027013
86	0x3febbd29	1.8417102
87	0x3f7a97a0	0.9788761
88	0x3f6de60a	0.92929137
89	0x3f38c271	0.72171694
90	0x3f5f7059	0.87280804
91	0x3f53a317	0.8267073
92	0x3f5b0661	0.8555661
93	0x3f553b1c	0.8329332
94	0x3f9d110b	1.2270826
95	0x3fa909fb	1.3206171
96	0x3f8d8f0b	1.1059278
97	0x3f39eb4e	0.7262467
98	0x3f891950	1.071085
99	0x3f8c443a	1.0958321
100	0x3f57eb19	0.84343106
101	0x3f76f836	0.9647249
102	0x3f5c8007	0.86132854
103	0x3f5485f7	0.83016914
104	0x3f5b0e95	0.85569125
105	0x3f4f3edb	0.80955285
106	0x3f4c1919	0.79725796
107	0x3f5bcf15	0.8586286
108	0x3f563853	0.83679694
109	0x3fa8c85a	1.3186142
110	0x3f9954e0	1.1979027
111	0x3f8f2e57	1.1186017
112	0x3f3288c3	0.6973993
113	0x3f550db7	0.8322405
114	0x3f9eb1bb	1.2397989
115	0x3f4e40ab	0.80567425
116	0x3fa1dbe3	1.2645229
117	0x3f8769b3	1.0579132
118	0x3f838742	1.0275652
119	0x3f7aa9e6	0.97915494
120	0x3f2afecf	0.6679506
121	0x3f74f195	0.95681125
122	0x3f45b506	0.77229345
123	0x3f7da792	0.99083817
124	0x3f7a3529	0.97737366
125	0x3f828761	1.0197564
126	0x3f859a7b	1.0437769
127	0x3f1469d8	0.57974005
128	0x3f3e10a5	0.7424415
129	0x3f5fa764	0.8736479
130	0x3f6cf924	0.9256766
131	0x3f5d81c5	0.8652614
132	0x3f60cafe	0.8780974
133	0x3f7912d3	0.9729435
134	0x3f49fa15	0.7889722
135	0x3f3e163d	0.7425268
136	0x3f8aed79	1.0853721
137	0x3f4f7a44	0.8104594
138	0x3f9f326c	1.2437263
139	0x3f45ef47	0.77318233
140	0x3f5a2a91	0.852212
141	0x3f86c088	1.0527506
142	0x3fb9c4fb	1.4513239
143	0x3f55b4ff	0.83479303
144	0x3f7e5e64	0.9936278
145	0x3f8198b4	1.0124726
146	0x3fded125	1.7407576
147	0x3f83c739	1.0295173
148	0x3f99c86d	1.201429
149	0x3f419ca8	0.75629663
150	0x3fbcd208	1.4751596
151	0x3f857e3a	1.0429146
152	0x3f55b26b	0.8347537
153	0x3f68bad7	0.90910095
154	0x3f8de7a7	1.108632
155	0x3f853bc6	1.0408866
156	0x3f59e24a	0.85110915
157	0x3f6cef4e	0.9255265
158	0x3fa23fc2	1.2675707
159	0x3f80df26	1.00681
160	0x3f7af236	0.98025835
161	0x3f88bdc9	1.0682918
162	0x3f7babf7	0.9830927
163	0x3f77086b	0.9649722
164	0x3f623260	0.88358116
165	0x3f23ad41	0.6393624
166	0x3f372404	0.7153933
167	0x3f461fac	0.7739208
168	0x3f594958	0.8487754
169	0x3f67abc8	0.9049649
170	0x3f7bf5ba	0.98421824
171	0x3f687b65	0.90813285
172	0x3f5adec3	0.8549616
173	0x3fa314a8	1.2740679
174	0x3f9faedb	1.2475237
175	0x3f737620	0.9510212
176	0x3f8f610e	1.1201494
177	0x3f432b48	0.76237917
178	0x3f6323d6	0.88726556
179	0x3f683eb9	0.9072071
180	0x3f8cef94	1.1010613
181	0x3f855aed	1.0418373
182	0x3f940f6c	1.1567206
183	0x3f6355c6	0.88802755
184	0x3f514264	0.8174193
185	0x3f528058	0.8222709
186	0x3f64975f	0.89293474
187	0x3f627013	0.8845226
188	0x3f596b5f	0.8492946
189	0x3f66f090	0.9021082
190	0x3f91124b	1.1333708
191	0x3f792d3e	0.9733466
192	0x3f86959a	1.0514405
193	0x3f614082	0.87989056
194	0x3f661549	0.8987623
195	0x3f555a47	0.8334088
196	0x3f80037e	1.0001066
197	0x3f58b2e4	0.84647965
198	0x3f7aa71a	0.97911227
199	0x3f4680c0	0.77540207
200	0x3f6e0f5c	0.92992187
201	0x3f6d22cb	0.92631215
202	0x3fa91e52	1.3212378
203	0x3f438113	0.76368827
204	0x3f7244ba	0.9463612
205	0x3f88a368	1.0674868
206	0x3fd6ccf6	1.6781299
207	0x3f71b683	0.94419116
208	0x3f6ff451	0.9373217
209	0x3f54e05d	0.8315485
210	0x3fb9057d	1.44548
211	0x3f62a51d	0.8853319
212	0x3f8f6cd0	1.1205082
213	0x3f6e996d	0.9320286
214	0x3fd0db3d	1.6316906
215	0x3f4a61af	0.79055303
216	0x3f5909a7	0.84780353
217	0x3f6988f7	0.91224617
218	0x3f8656de	1.049526
219	0x3f8d7ec1	1.1054307
220	0x3f7245a1	0.94637495
221	0x3f3ee83d	0.7457312
222	0x3f855e74	1.041945
223	0x3f5bedf5	0.8590997
224	0x3f57139e	0.8401431
225	0x3f73d19b	0.9524171
226	0x3f5cf112	0.86305344
227	0x3f6e3baf	0.9305982
228	0x3f4ebea3	0.8075964
229	0x3f5f1e51	0.87155634
230	0x3f721720	0.94566536
231	0x3f578557	0.84187835
232	0x3f60290b	0.87562627
233	0x3f7b021a	0.9805008
234	0x3f665eb6	0.8998827
235	0x3f67520e	0.9035958
236	0x3f6e2a64	0.9303343
237	0x3f8b358e	1.0875719
238	0x3f801ecf	1.0009402
239	0x3f5859eb	0.84512204
240	0x3f6cd608	0.92514086
241	0x3f67cd5e	0.9054774
242	0x3f876a9a	1.0579407
243	0x3f4cc2ec	0.7998493
244	0x3f64c5e3	0.8936445
245	0x3f7fc056	0.99902856
246	0x3f525f2e	0.8217648
247	0x3f7c0bfe	0.984558
248	0x3f3f111a	0.7463547
249	0x3f6e1fe0	0.9301739
250	0x3f71dc12	0.94476426
251	0x3f6fbc62	0.93646824
252	0x3f851949	1.0398341
253	0x3fb816bd	1.4381939
254	0x3f49bdf6	0.7880548
255	0x3f7335d0	0.95003986

fc2.bias f4 [4]
0	0x3fa31495	1.2740656
1	0x3fb06f38	1.3783941
2	0x3fb9e17a	1.4521935
3	0x3fb76e67	1.4330567
